results/recommendationHead_model.pth (torch, 337218 bytes, 76 tensors)

embedding.weight f4 [32, 12]
0	0xbe31ff80	-0.17382622
1	0xbe77a991	-0.24185778
2	0x3dabaecd	0.0838295
3	0x3cc27bc2	0.023740653
4	0xbe350b4a	-0.17680088
5	0xbe80d41e	-0.25161833
6	0xbe4964c2	-0.19667342
7	0x3d8dc126	0.06921606
8	0xbea452ee	-0.3209452
9	0xbda81952	-0.082079545
10	0xbe38e521	-0.18056156
11	0xbd8dd934	-0.06926194
12	0x3e680c85	0.22661026
13	0xbc4f45d0	-0.012650922
14	0x3d07db5c	0.03316818
15	0x3d1ad191	0.037797514
16	0x3c47d950	0.012197807
17	0x3e6dbfbc	0.23217672
18	0x3c5cec3f	0.01348406
19	0x3dedb0cf	0.11605989
20	0x3d7f28ec	0.062294886
21	0xbcdf6dd7	-0.027274055
22	0x3da1d719	0.07902355
23	0x3d266304	0.040621772
24	0xbe4db387	-0.20088015
25	0x3dbe04b5	0.092782415
26	0xbe4531d9	-0.19257297
27	0x3c0ac4a9	0.008469739
28	0x3e142497	0.14467083
29	0x3dd69cd6	0.10479133
30	0x3d993c14	0.07482162
31	0x3e5a4093	0.21313696
32	0xbcf596e6	-0.02997918
33	0x3cd98101	0.026550772
34	0x3dcffd26	0.10155706
35	0xbc3441f6	-0.011002054
36	0x3ea7e738	0.32793593
37	0x3d39363a	0.04521773
38	0x3c3916c8	0.011296935
39	0x3e55049e	0.20802543
40	0x3eadd214	0.3394934
41	0x3e2e29fd	0.17008205
42	0x3e0bbef7	0.13647066
43	0x3e3440c0	0.17602825
44	0x3e90a5d4	0.28251517
45	0x3e8c293e	0.27375215
46	0x3cbe2d78	0.02321504
47	0x3e23dad6	0.16001448
48	0xbe916538	-0.28397536
49	0xbe1d98eb	-0.15390365
50	0xbd08ad3e	-0.03336834
51	0x3c20e871	0.009821043
52	0xbe736517	-0.23769031
53	0x3d8fdcf4	0.07024565
54	0xbdb0f790	-0.08640969
55	0xbe6261fd	-0.22107692
56	0x3dae7121	0.085176714
57	0xbdb8a71d	-0.09016249
58	0xbddf6abe	-0.10909031
59	0xbe3b456f	-0.18288206
60	0xbe9ae379	-0.30251673
61	0x3da9507b	0.082673036
62	0xbe1caa01	-0.15299226
63	0xbe97f808	-0.2968142
64	0xbe83c0a8	-0.25732923
65	0xbe8912ec	-0.2677225
66	0xbe75d64f	-0.24007533
67	0x3d9b08e9	0.07570059
68	0xbe63ff3a	-0.2226533
69	0xbe7ba2af	-0.24573778
70	0xbdf66e0a	-0.12032707
71	0xbc9a196a	-0.018810946
72	0x3ba59c63	0.005054043
73	0x3e4d4cba	0.200488
74	0xbe3864dd	-0.18007226
75	0x3e4ec060	0.20190573
76	0x3e96f7d9	0.29485968
77	0x3df1259f	0.11774754
78	0x3e182220	0.14856768
79	0xbdc2a9f2	-0.09505071
80	0x3e8d64c7	0.2761595
81	0xbcc03cac	-0.02346643
82	0x3d1677dd	0.036735404
83	0xbd9753a4	-0.07389
84	0x3dcb39dc	0.09923145
85	0xbd86c380	-0.065802574
86	0xbe69b3b6	-0.2282246
87	0xbe0e937c	-0.13923448
88	0xbe8ae3ff	-0.27127072
89	0x3d9e6445	0.07733969
90	0x3da31229	0.07962448
91	0xba9bd681	-0.0011889489
92	0xbe195192	-0.14972523
93	0xbe0d8dea	-0.13823667
94	0xbd9cf2a3	-0.07663467
95	0xbd029348	-0.03187874
96	0x3e52463a	0.20534602
97	0x3e8e602f	0.27807757
98	0x3c8cfde9	0.017210918
99	0xbc7914ca	-0.01520271
100	0xbdaf470e	-0.085584745
101	0x3dc3ffe0	0.09570289
102	0x3df2d443	0.11856892
103	0x3e4207ca	0.18948284
104	0x3c969f93	0.018386638
105	0x3e42fd34	0.19041902
106	0xbd15acd2	-0.036541767
107	0x3e919610	0.284348
108	0xbe2556e8	-0.16146433
109	0xbe1634e7	-0.14668618
110	0xbd303b3f	-0.04302525
111	0xbe281dab	-0.16417567
112	0xbe86e5c3	-0.2634717
113	0xbe958969	-0.29206398
114	0xbe86cf9b	-0.26330265
115	0xbe4a42cf	-0.19752048
116	0xbd1d84f9	-0.03845689
117	0xbeac713d	-0.33680144
118	0xbcbd714b	-0.023125311
119	0xbe772e84	-0.24138838
120	0xbcc904e6	-0.024538469
121	0x3d972ff1	0.07382191
122	0x3dc93c55	0.098259605
123	0x3e885728	0.26628995
124	0x3d7bd8ee	0.061486177
125	0x3e1cc870	0.15310836
126	0x3d8a1d52	0.06743874
127	0xbc15655f	-0.009118407
128	0x3eb43462	0.35196215
129	0xbbeb7f11	-0.0071867784
130	0x3e80fc13	0.25192317
131	0x3e919c91	0.28439763
132	0xbe69ed19	-0.22844352
133	0xbd8c4bfd	-0.06850431
134	0xbb496d0a	-0.0030735158
135	0x3c34e25d	0.011040297
136	0xbe056119	-0.13025321
137	0xbe3ec68e	-0.1863043
138	0xbd1dfbda	-0.038570262
139	0x3c68dd9f	0.014212995
140	0x3e0c8f2f	0.13726495
141	0xbd909c0b	-0.07061013
142	0x3d58eb93	0.052959036
143	0xbd1077cf	-0.03527051
144	0x3e053e92	0.1301215
145	0xbe274cc0	-0.16337872
146	0xbc9a8cdd	-0.018865997
147	0x3df416e9	0.11918432
148	0x3d1d621b	0.03842364
149	0x3e183fe4	0.14868122
150	0xbd6aa8e2	-0.057289965
151	0x3b8ed34d	0.004358685
152	0xbe8fb443	-0.28067216
153	0x3d67c506	0.05658438
154	0xbd6b5c1b	-0.057460885
155	0x3dff04c6	0.12452082
156	0x3e99fc27	0.3007519
157	0x3e96d8ff	0.2946243
158	0x3e055ebb	0.13024418
159	0xbc0c404c	-0.008560251
160	0x3e32d474	0.17463857
161	0x3e5499fe	0.20761868
162	0x3e541dde	0.20714518
163	0x3d136f27	0.035994675
164	0x3eb382d2	0.35060745
165	0x3e625f3d	0.22106643
166	0x3e4b6804	0.19863898
167	0xbc4921e0	-0.012276143
168	0xbe8ad68e	-0.27116817
169	0xbea2551b	-0.31705555
170	0xbe808471	-0.25101045
171	0xbeab8785	-0.3350183
172	0xbd78c089	-0.06073049
173	0xbdb252fa	-0.08707233
174	0xbc71b309	-0.014752158
175	0x3cbadba5	0.022809813
176	0xbd8880fa	-0.06665225
177	0xbe214a03	-0.1575089
178	0xbdc6add1	-0.097011216
179	0xbd96d60c	-0.07365045
180	0x3e47c02b	0.195069
181	0x3e91b925	0.28461567
182	0xbc99e7ef	-0.018787352
183	0x3d015f32	0.031584926
184	0x3e915bdb	0.28390393
185	0xbd4bac2f	-0.049724754
186	0x3b8816b1	0.0041530957
187	0x3ea393ee	0.319488
188	0xbd86a655	-0.06574694
189	0x3b875a1d	0.0041306154
190	0x3e11d52c	0.14241475
191	0x3d9dd418	0.07706469
192	0xbd721ca5	-0.05910935
193	0xbdb4b6ce	-0.0882393
194	0xbe59eb73	-0.21281223
195	0x3d805855	0.06266848
196	0xbe0ddc92	-0.13853672
197	0xbe00fec6	-0.12597188
198	0xbe02d28b	-0.12775628
199	0xbe187cef	-0.14891408
200	0x3d4daa54	0.050211266
201	0xbd59b763	-0.053153407
202	0xbc2147ea	-0.009843806
203	0x3ca88ead	0.020575846
204	0x3d971551	0.07377113
205	0xbc09c2d8	-0.008408271
206	0x3e8762d7	0.26442596
207	0x3d8964be	0.06708668
208	0x3eacf9bc	0.33784282
209	0x3eadc05b	0.33935818
210	0xbceb64fe	-0.02873468
211	0x3c2c32e4	0.01051018
212	0x3e1d2a36	0.15348133
213	0x3e472296	0.19446787
214	0x3ea47868	0.32123113
215	0x3e9cdc4f	0.30636832
216	0x3e536cae	0.20646927
217	0x3e677379	0.22602643
218	0x3c007a22	0.007841619
219	0x3dd2aec8	0.10287243
220	0x3eacfe79	0.33787897
221	0x3e8cbad9	0.27486303
222	0xbd58b2ab	-0.052904766
223	0x3d0a9c69	0.03384057
224	0x3e4aaec9	0.19793238
225	0x3e1414db	0.1446108
226	0x3eaca46e	0.337192
227	0xbaed6466	-0.0018111586
228	0x3e7be3bf	0.24598597
229	0xbae9c1f2	-0.001783429
230	0x3e60134c	0.21882361
231	0x3d7617a0	0.060081124
232	0x3e6e6ce6	0.23283729
233	0x3e23c17b	0.15991776
234	0x3d4fabb5	0.050700862
235	0x3e6405e3	0.2226787
236	0x3e8840bb	0.26611885
237	0x3e6915f0	0.22762275
238	0x3e6b318b	0.22968118
239	0xbbf78015	-0.0075531104
240	0xbc9e5c60	-0.019331157
241	0x3afc2d52	0.0019239581
242	0x3d5835f4	0.05278583
243	0x3e379a0c	0.17929858
244	0x3de49524	0.11161259
245	0xbe090f3c	-0.13384718
246	0xbe29c80f	-0.16580223
247	0xbd994994	-0.07484737
248	0xbde9fa11	-0.114246495
249	0x3e31e7ed	0.17373629
250	0x3e5ed109	0.21759428
251	0xbbddb1f3	-0.006765598
252	0xbde6e7ae	-0.11274658
253	0x3d866034	0.06561318
254	0xbd2f74ae	-0.042835884
255	0xbe0289ea	-0.12747923

embedding.bias f4 [32]
0	0xbea1550c	-0.31510198
1	0x3da9cc1f	0.08290886
2	0x3e2ed01d	0.17071576
3	0x3d4a5e6f	0.049406465
4	0x3d8d158e	0.06888877
5	0xbe83aa10	-0.25715685
6	0x3e24ad4b	0.16081731
7	0x3d02c023	0.031921517
8	0xbd3c9a30	-0.046045482
9	0xbc6c95b3	-0.014439988
10	0x3d6792d0	0.056536496
11	0xbe8adbb3	-0.27120742
12	0xbde6a678	-0.1126222
13	0xbcd9f289	-0.026604908
14	0x3d622193	0.0552078
15	0x3e0f297b	0.13980667
16	0xbda579be	-0.08079861
17	0x3e388b1a	0.18021813
18	0x3e5509e1	0.2080455
19	0x3d6373a2	0.055530198
20	0xbdc7cc83	-0.097558044
21	0xbdb1826b	-0.086674534
22	0xbe477205	-0.19477089
23	0xbdda9247	-0.106724314
24	0x3d96bef4	0.0736064
25	0x3e2ef817	0.17086826
26	0xbe318fdc	-0.17340034
27	0x3c63434a	0.013871023
28	0x3dc9c4f4	0.09852019
29	0xbc44d49b	-0.01201358
30	0xbcc40c6b	-0.023931703
31	0x3e29bbdc	0.16575569

attention_blocks.0.multihead_attn.in_proj_weight f4 [96, 32]
0	0x3e1df71f	0.154263
1	0x3e10a2f5	0.14124663
2	0x3d316c2b	0.043316048
3	0x3e1f87a9	0.15579094
4	0xbc968cca	-0.01837768
5	0xbe01a5e7	-0.12660943
6	0xbdac3263	-0.08408048
7	0xbd0de85c	-0.034645423
8	0x3d3f6887	0.046730544
9	0xbd7f7150	-0.062363923
10	0xbe056d0c	-0.1302988
11	0x3d372e6b	0.044722002
12	0x3d74024c	0.059572503
13	0x3c96deb8	0.018416747
14	0x3de819c6	0.11333041
15	0xbe1f4875	-0.15554984
16	0xbd780973	-0.060555886
17	0xbdc84ed1	-0.09780658
18	0xbe093f83	-0.13403134
19	0xbe1b2a2d	-0.15152808
20	0xbc806c46	-0.015676629
21	0xbe0c3bea	-0.1369473
22	0x3d39629f	0.045260068
23	0xbd3e312d	-0.046433616
24	0xbe1aaba9	-0.15104546
25	0xbe170810	-0.1474917
26	0x3df8fcdc	0.12157604
27	0xbdf555e2	-0.119792715
28	0xbde77e04	-0.113033324
29	0x3d904225	0.07043866
30	0x3d29cf65	0.041457552
31	0x3d844e2c	0.064602226
32	0xbe1155a5	-0.14192827
33	0xbadead53	-0.001698891
34	0x3ba6432b	0.005073925
35	0x3dc8ac06	0.09798436
36	0x3dba262e	0.090893134
37	0x3d86a3be	0.065742
38	0xbe04f4cb	-0.12984006
39	0x3e0cddb7	0.13756453
40	0x3d53cf82	0.051711567
41	0x3c71c574	0.014756549
42	0xbe13819a	-0.14404908
43	0xbdef54f2	-0.11686124
44	0xbe1145b1	-0.14186741
45	0xbdfacc25	-0.12245969
46	0x3d73d1a4	0.0595261
47	0xbe1d9aaf	-0.15391038
48	0xbdb1d66d	-0.086834766
49	0xbd9105d5	-0.070811905
50	0x3d68aff4	0.056808427
51	0x3d9606c6	0.07325511
52	0xbe126d3a	-0.14299479
53	0x3dfe3e2e	0.124142036
54	0x3dc842d3	0.09778371
55	0xbe09ca35	-0.13456042
56	0x3dd0717a	0.10177894
57	0x3e1dc41e	0.15406844
58	0x3e0068db	0.12539999
59	0xbe0324fa	-0.12807074
60	0xbd89ae5f	-0.06722712
61	0x3daac252	0.08337845
62	0x3d7d5e1e	0.061857335
63	0x3d78d5be	0.060750715
64	0x3c944e02	0.018103603
65	0x3cefc888	0.029270425
66	0x3dd44ce0	0.10366225
67	0x3dbf60c8	0.093446314
68	0xbde102dd	-0.10986874
69	0x3d7c5516	0.06160458
70	0xbc77d16a	-0.015125612
71	0x3d225525	0.03963198
72	0x3e18c5a6	0.14919147
73	0x3d8c6952	0.06856026
74	0x3dd15b2e	0.10222469
75	0x3d8e0409	0.069343634
76	0x3c0c3912	0.0085585285
77	0xbdf8101a	-0.12112446
78	0x3d058592	0.032598086
79	0xbe0dd309	-0.13850035
80	0xbd83c53c	-0.06434104
81	0xbc49acf6	-0.0123093035
82	0x3e0c5930	0.13705897
83	0xbdaeee81	-0.08541585
84	0xbd099975	-0.033593614
85	0x3d84e0c4	0.06488183
86	0x3e067e8d	0.13134213
87	0xbc2e0901	-0.010622264
88	0x3d137dda	0.036008693
89	0xbd79a69a	-0.0609499
90	0xbe0dde61	-0.13854362
91	0xbe025e1c	-0.12731212
92	0x3dafea55	0.08589617
93	0x3e1b144d	0.15144463
94	0x3da3c6fd	0.079969384
95	0x3d76191e	0.060082547
96	0x3e0eb8b8	0.13937652
97	0x3d0c8420	0.03430569
98	0x3d43b4ea	0.047779955
99	0x3e085347	0.13313018
100	0x3e02f412	0.12788418
101	0xbc848d7b	-0.016180744
102	0x3dbd2d21	0.09237123
103	0xbc8b0ed5	-0.016974846
104	0xbd02b722	-0.03191293
105	0x3a677210	0.00088289473
106	0xbe20143a	-0.15632716
107	0x3d985fd0	0.0744015
108	0xbdbd4688	-0.092419684
109	0xbe0b5d8b	-0.13609903
110	0xbd2618ce	-0.040551
111	0xbce2b8f5	-0.027676085
112	0xbcc15b08	-0.023602977
113	0xbbde7843	-0.0067892387
114	0x3d4f8a7d	0.050669182
115	0x3dd864b1	0.1056608
116	0xbd33545a	-0.043781616
117	0xbe14c1fb	-0.14527123
118	0x3d598cc7	0.05311277
119	0xbe006db1	-0.12541844
120	0xbc5547fd	-0.013017652
121	0x3e22cb38	0.15897834
122	0x3d820601	0.063488014
123	0x3dc84bb2	0.09780063
124	0xbe0971c6	-0.13422307
125	0xbe02367b	-0.12716095
126	0xbe1316a4	-0.14364105
127	0x3d3feb2a	0.04685513
128	0x3decd887	0.11564737
129	0xbc9abde7	-0.01888938
130	0xbe228123	-0.15869574
131	0xbddfd56e	-0.1092938
132	0xbcf91e24	-0.03040988
133	0xbe0899f7	-0.13339983
134	0xbca75895	-0.020427981
135	0x3d184403	0.037174236
136	0xbe034d81	-0.12822534
137	0x3e02f535	0.12788852
138	0xbe08e1ed	-0.13367434
139	0x3e12dcab	0.1434199
140	0xbdac15c1	-0.08402587
141	0xbdbaa10a	-0.09112747
142	0x3e0adc3c	0.13560575
143	0xbdcbd3ca	-0.09952505
144	0x3d8bec41	0.06832171
145	0xbd96fc2b	-0.07372316
146	0x3e183c23	0.1486669
147	0xbe185c79	-0.14879026
148	0x3e1ecbb8	0.155074
149	0x3d5cb7af	0.05388611
150	0x3ccde311	0.025132688
151	0x3e0a19c3	0.1348639
152	0x3df2d3a5	0.11856774
153	0x3dfc5b1e	0.12322067
154	0xbdf79713	-0.12089362
155	0x3cd89edd	0.02644294
156	0xbd83b88f	-0.06431686
157	0x3d2ac713	0.04169376
158	0xbd139446	-0.036030076
159	0x3d1024cf	0.035191353
160	0x3e1ead4a	0.15495792
161	0xbde5b579	-0.11216254
162	0x3dc5e285	0.09662346
163	0xbe13355e	-0.14375827
164	0x3de48c73	0.11159601
165	0xbcdedee8	-0.0272059
166	0x3d825f81	0.06365872
167	0x3de63aa3	0.11241653
168	0x3db4e439	0.088325925
169	0xbe007f4f	-0.12548564
170	0xbdc8951f	-0.097940676
171	0xbd5f13ad	-0.054462124
172	0xbe17fa1c	-0.14841503
173	0xbcd3ff99	-0.025878714
174	0xbdbc86d7	-0.09205406
175	0x3de5daed	0.112233974
176	0xbe1152cc	-0.14191741
177	0x3d0a0848	0.033699304
178	0xbddd43ed	-0.108039714
179	0xbde6091a	-0.11232205
180	0xbb29bead	-0.0025901005
181	0x3def662a	0.11689408
182	0x3dc95a22	0.098316446
183	0xbc15d1ba	-0.009144241
184	0x3e1783a8	0.14796317
185	0x3ce7b825	0.02828605
186	0xbd280e5d	-0.041029323
187	0x3da50ab4	0.08058682
188	0x3d3ef5dc	0.04662119
189	0xbe0a36a3	-0.13497405
190	0x3db665d2	0.089061394
191	0x3ce5368e	0.027980115
192	0xbd49e778	-0.04929301
193	0x3e1b8fbb	0.15191548
194	0x3db2209e	0.086976275
195	0x3ca99d74	0.020704962
196	0x3db86cc7	0.09005123
197	0x3c8c1dad	0.017103994
198	0x3ddf0123	0.10888889
199	0xbde205de	-0.11036275
200	0x3d776f6f	0.060409006
201	0x3c6877ad	0.014188689
202	0x3dbe0547	0.0927835
203	0x3d975706	0.07389645
204	0xbdf5a0a6	-0.11993532
205	0xbdd52ab9	-0.10408539
206	0xbdc40eb0	-0.09573114
207	0x3d96306a	0.07333453
208	0x3dde4a2f	0.10853993
209	0x3d107a27	0.035272744
210	0xbbc57a05	-0.0060265088
211	0x3db3a63b	0.0877194
212	0x3d67b788	0.056571513
213	0x3da88769	0.082289524
214	0x3d6ed048	0.0583041
215	0x3db74c78	0.08950132
216	0x3da3317f	0.07968425
217	0xbdc61df9	-0.096736856
218	0xbd4d8238	-0.050173014
219	0x3da2ca8d	0.0794879
220	0xbc36bf34	-0.011153985
221	0xbdceffd2	-0.101073876
222	0x3e032a24	0.12809044
223	0x3e18e591	0.14931323
224	0x3db0c449	0.086311884
225	0x3d0070d2	0.031357594
226	0xbe202831	-0.15640332
227	0xbe1f8a3d	-0.15580077
228	0x3dd50c6e	0.104027614
229	0xba237808	-0.00062358426
230	0x3d24d5d7	0.040242996
231	0xbc03fc22	-0.008055719
232	0xbd58b7e7	-0.052909758
233	0x3ba280af	0.004959188
234	0x3dd6f5b8	0.10496086
235	0x3dcb0782	0.099135414
236	0xbd11d445	-0.035602827
237	0xbd8b5ef9	-0.06805224
238	0xbdce6b6a	-0.10079081
239	0x3b2e847f	0.0026629267
240	0x3de57d03	0.11205485
241	0xbe0643e6	-0.13111839
242	0x3de12cf9	0.10994906
243	0xbd80a9df	-0.062824
244	0x3d542584	0.05179359
245	0x3dba4018	0.09094256
246	0xbd26b964	-0.040704146
247	0xbe0b4a63	-0.13602595
248	0xbd6e1def	-0.058134016
249	0x3e1959ab	0.14975612
250	0x3da2f7d0	0.07957423
251	0xbd2a4354	-0.041568115
252	0xbe0c643c	-0.13710111
253	0x3d4a588c	0.04940085
254	0x3e1f26ba	0.15542117
255	0xbdf0c9fc	-0.117572755

attention_blocks.0.multihead_attn.in_proj_bias f4 [96]
0	0x00000000	0.0
1	0x00000000	0.0
2	0x00000000	0.0
3	0x00000000	0.0
4	0x00000000	0.0
5	0x00000000	0.0
6	0x00000000	0.0
7	0x00000000	0.0
8	0x00000000	0.0
9	0x00000000	0.0
10	0x00000000	0.0
11	0x00000000	0.0
12	0x00000000	0.0
13	0x00000000	0.0
14	0x00000000	0.0
15	0x00000000	0.0
16	0x00000000	0.0
17	0x00000000	0.0
18	0x00000000	0.0
19	0x00000000	0.0
20	0x00000000	0.0
21	0x00000000	0.0
22	0x00000000	0.0
23	0x00000000	0.0
24	0x00000000	0.0
25	0x00000000	0.0
26	0x00000000	0.0
27	0x00000000	0.0
28	0x00000000	0.0
29	0x00000000	0.0
30	0x00000000	0.0
31	0x00000000	0.0
32	0x00000000	0.0
33	0x00000000	0.0
34	0x00000000	0.0
35	0x00000000	0.0
36	0x00000000	0.0
37	0x00000000	0.0
38	0x00000000	0.0
39	0x00000000	0.0
40	0x00000000	0.0
41	0x00000000	0.0
42	0x00000000	0.0
43	0x00000000	0.0
44	0x00000000	0.0
45	0x00000000	0.0
46	0x00000000	0.0
47	0x00000000	0.0
48	0x00000000	0.0
49	0x00000000	0.0
50	0x00000000	0.0
51	0x00000000	0.0
52	0x00000000	0.0
53	0x00000000	0.0
54	0x00000000	0.0
55	0x00000000	0.0
56	0x00000000	0.0
57	0x00000000	0.0
58	0x00000000	0.0
59	0x00000000	0.0
60	0x00000000	0.0
61	0x00000000	0.0
62	0x00000000	0.0
63	0x00000000	0.0
64	0x3c2333e8	0.009961106
65	0x3de44a3e	0.11146973
66	0xbdfa57a6	-0.12223749
67	0x3e42f04c	0.19036978
68	0xbdb08e53	-0.08620896
69	0x3e141fb8	0.14465225
70	0x3d4925d2	0.049108334
71	0xbe203705	-0.15645988
72	0x3ca72e2e	0.020407762
73	0xbe07fbb2	-0.13279608
74	0xbc1e3846	-0.009656971
75	0x3ce7709a	0.028251935
76	0x3c2ede2d	0.010673088
77	0x3df4502b	0.11929353
78	0x3e0e7176	0.1391047
79	0xbe01e0c1	-0.12683393
80	0x3e19449e	0.14967582
81	0x3dba52e0	0.090978384
82	0xbe073241	-0.13202764
83	0x3d17b4c3	0.037037622
84	0x3e029b7b	0.12754624
85	0xbe265d4f	-0.16246532
86	0xbdf7ecb5	-0.12105695
87	0x3e176013	0.14782743
88	0x3dca63d4	0.09882322
89	0x3e03fbd0	0.12889028
90	0x3bdd3888	0.006751124
91	0x3e043062	0.12909082
92	0x3d4726c5	0.048620958
93	0x3d6a94a1	0.05727065
94	0x3e1d123d	0.15338989
95	0xbe118fc5	-0.14215

attention_blocks.0.multihead_attn.out_proj.weight f4 [32, 32]
0	0x3e7d957e	0.24764058
1	0xbd415c09	-0.047206912
2	0xbd64f403	-0.05589677
3	0xbe3b6a6b	-0.18302314
4	0x3d3c1225	0.04591574
5	0xbe0c0017	-0.1367191
6	0x3e43080d	0.1904604
7	0x3e18bf6b	0.1491677
8	0x3d1de568	0.038548857
9	0x3e77ad45	0.24187191
10	0x3e30335a	0.17207089
11	0xbde6eca1	-0.11275602
12	0x3dfc529c	0.12320444
13	0xbe1f7db7	-0.155753
14	0xbd8eb93d	-0.06968925
15	0xbc87606c	-0.01652547
16	0x3dae89ed	0.08522401
17	0xbd851dd6	-0.064998314
18	0x3da84fd8	0.08218354
19	0xbd02eea5	-0.03196587
20	0x3d489e0d	0.048978854
21	0xbb429dae	-0.0029696035
22	0x3e058c9a	0.13041916
23	0xbdbc2d0b	-0.09188279
24	0x3ce28637	0.02765189
25	0xbdbdaa80	-0.09261036
26	0xbd196b72	-0.037455983
27	0x3c149936	0.009069731
28	0x3d592040	0.05300927
29	0xbe3466b6	-0.17617306
30	0xbdc617d0	-0.096725106
31	0x3d3933ed	0.045215536
32	0xbe6e37e0	-0.23263502
33	0x3dac974d	0.08427296
34	0xbe53c66f	-0.20681165
35	0x3dd2ee58	0.10299367
36	0xbe1b189b	-0.15146105
37	0x3e5a1f68	0.21301043
38	0xbd4d745c	-0.050159797
39	0xbdac8ba5	-0.084250726
40	0xbc51dbe9	-0.012808778
41	0xbe38a219	-0.18030585
42	0xbe04c707	-0.12966548
43	0x3e02e1b7	0.12781416
44	0xbe83aa82	-0.25716025
45	0x3e0111af	0.12604402
46	0x3db9248f	0.09040176
47	0x3dca370d	0.09873781
48	0x3e3dae95	0.18523629
49	0x3ca2a97d	0.019856209
50	0xbc55c754	-0.013048012
51	0x3dbc56bd	0.091962315
52	0xbd7caf38	-0.06169054
53	0xbdd03bbc	-0.101676434
54	0xbe1c099b	-0.15238039
55	0xbcd1aced	-0.025595153
56	0xbd66948a	-0.056294
57	0x3dc9e944	0.09858945
58	0x3d965933	0.07341232
59	0xbe452533	-0.19252472
60	0xbda08acb	-0.07838973
61	0x3e3a3dde	0.18187663
62	0x3e229fdc	0.15881294
63	0xbca95430	-0.020670027
64	0xbc9e3cf6	-0.019316178
65	0x3d851f9f	0.06500172
66	0xbd2b8d45	-0.041882772
67	0xbd7ff2b0	-0.062487304
68	0x3d024ba5	0.03181042
69	0xbabb896f	-0.0014307926
70	0xbe0edbfd	-0.13951106
71	0xbd06056e	-0.032720022
72	0xbcd2ce33	-0.02573309
73	0xbe3b7cb6	-0.18309292
74	0xbaa93282	-0.0012908729
75	0x3cd046c6	0.025424372
76	0x3d938fbc	0.072051495
77	0x3d4d3527	0.05009952
78	0xbd08d400	-0.033405304
79	0x3e34c3db	0.17652838
80	0xbda053db	-0.07828494
81	0x3e0c68d1	0.1371186
82	0xbe5fef33	-0.21868591
83	0xbd95c090	-0.07312119
84	0x3e294b8c	0.16532725
85	0xbdbbd7cd	-0.0917202
86	0xbbd8154e	-0.0065943366
87	0xbda94c26	-0.08266477
88	0xbe3cd5cf	-0.18440937
89	0x3cb603ef	0.022218673
90	0xbd5993c7	-0.053119447
91	0xbe088840	-0.13333225
92	0x3cc8d8b6	0.024517398
93	0xbc8761fa	-0.016526211
94	0x3d86023e	0.065433964
95	0xbda29db4	-0.07940236
96	0xbe3b7e8e	-0.18309996
97	0x3ddef3a1	0.10886312
98	0x3c74b36d	0.014935357
99	0x3e73375c	0.23751587
100	0xbcecd23c	-0.028908841
101	0x3e519775	0.20467933
102	0xbe4fa467	-0.20277558
103	0xbddc9e1e	-0.10772346
104	0x3e73db31	0.23814084
105	0xbe8eab31	-0.27864984
106	0xbe864b32	-0.26229244
107	0xbdef5c22	-0.11687495
108	0xbe118924	-0.14212471
109	0x3dfcea43	0.123493694
110	0x3d602078	0.054718465
111	0x3e2574a8	0.16157782
112	0x3d34d7f1	0.04415125
113	0x3db2638e	0.08710395
114	0xbd9b79e0	-0.07591605
115	0xbd49f5f2	-0.049306817
116	0x3cbc88e5	0.023014495
117	0xbcdb9772	-0.026805613
118	0xbd72a6a6	-0.05924096
119	0x3d82ea4c	0.06392345
120	0x3cf4c90f	0.029881028
121	0x3e994481	0.29935077
122	0x3dd2ddef	0.10296237
123	0xbde2f895	-0.110825695
124	0xbe2e6c6e	-0.1703355
125	0xbcb623ef	-0.022233931
126	0x3ce628b6	0.028095584
127	0xbe6575e8	-0.22408259
128	0xbda7ed17	-0.08199518
129	0xbe5fe39f	-0.21864174
130	0x3e6c1ac0	0.2305708
131	0xbd3c8a91	-0.046030585
132	0x3d320328	0.04346004
133	0xbd4e88ff	-0.05042362
134	0xbd3d8585	-0.046269912
135	0x3c8da153	0.01728884
136	0xbe1cb66f	-0.15303968
137	0x3d3969df	0.045266982
138	0xbcbe49cb	-0.023228547
139	0xbca2fbfd	-0.019895548
140	0x3e24007d	0.16015811
141	0x3d89912c	0.067171425
142	0xbc6233d6	-0.013806304
143	0xbcdafa6e	-0.026730742
144	0xbcfe0787	-0.031009449
145	0xbd0de280	-0.034639835
146	0x3e0ae759	0.13564815
147	0x3e102509	0.14076628
148	0xbd933209	-0.07187278
149	0x3e880c0a	0.26571685
150	0xbc36f867	-0.011167622
151	0xbd3c68f2	-0.04599852
152	0xbe12f82a	-0.1435248
153	0x3d38a96d	0.045083452
154	0xbe0d9030	-0.13824534
155	0x3dd683d8	0.10474366
156	0x3d98eaf2	0.07466687
157	0xbd9fff04	-0.07812312
158	0xbd4aeaf4	-0.049540475
159	0x3d28d4e0	0.04121864
160	0xbddd50ba	-0.10806413
161	0x3d9c388b	0.07627972
162	0xbe1e4496	-0.15455851
163	0x3dc7d5ba	0.09757562
164	0xbe4143c8	-0.18873513
165	0x3d30061a	0.04297457
166	0xbda60e9e	-0.08108257
167	0xbe4b7d4e	-0.19872019
168	0x3cc4b90a	0.024014015
169	0xbe0fddc7	-0.14049445
170	0xbd0efc09	-0.03490833
171	0xbcf32255	-0.029679457
172	0x3a23fdba	0.0006255765
173	0xbdd14cc0	-0.10219717
174	0xbd9c95cf	-0.07645761
175	0x3da45275	0.0802354
176	0xbd23a9b2	-0.039956756
177	0x3e794bc9	0.24345316
178	0xbde9f293	-0.114232205
179	0xbd66efde	-0.0563811
180	0x3e04b883	0.1296101
181	0xbd844dfd	-0.064601876
182	0x3dbb19ec	0.091358036
183	0x3e72075e	0.23635623
184	0x3e0e25b5	0.13881572
185	0xbd8b845c	-0.06812355
186	0x3ba8ac96	0.005147527
187	0x3dc2bc17	0.095085315
188	0x3de27962	0.11058308
189	0x3e7581c4	0.23975283
190	0xbde95311	-0.11392797
191	0xbccd2210	-0.025040656
192	0x3da312e1	0.07962585
193	0x3d766ff3	0.060165357
194	0xbd4ae1d8	-0.049531788
195	0xbdb98ba2	-0.09059836
196	0xbc4eb8a8	-0.012617268
197	0x3dd5cf0e	0.10439883
198	0x3d9e3e4c	0.07726726
199	0xbd8270f2	-0.06369199
200	0xbcefe763	-0.029285138
201	0xbca2b6b3	-0.019862508
202	0x3c31a8f3	0.010843503
203	0x3d869023	0.06570461
204	0xbca2e666	-0.019885253
205	0x3d88fab8	0.06688446
206	0xbd6cf671	-0.057852212
207	0xbbd88cea	-0.006608595
208	0xbd31bcb7	-0.043392863
209	0x3e4d17e0	0.20028639
210	0xbcf47953	-0.029843008
211	0xbd842831	-0.064529784
212	0x3d1d5eeb	0.0384206
213	0x3d8192c6	0.06326823
214	0x3ce98802	0.028507236
215	0x3da5b5b3	0.08091297
216	0x3d6717a7	0.05641904
217	0x3d9d877b	0.076918565
218	0xbd8e0cc4	-0.069360286
219	0x3d243d53	0.040097546
220	0xbe061a48	-0.13095963
221	0x3d4f8b66	0.05067005
222	0x3d2a09f0	0.041513383
223	0xbe143bd5	-0.14475949
224	0xbd03114b	-0.031998914
225	0xbe7b2dd1	-0.24529196
226	0x3e7b1f8f	0.24523757
227	0xbde6354c	-0.11240634
228	0x3d1c2515	0.0381213
229	0xbd8008d2	-0.06251682
230	0x3d9a82d3	0.07544484
231	0x3e845583	0.2584649
232	0xbe259a9f	-0.16172265
233	0x3d121d54	0.0356725
234	0x3dc0e763	0.094191335
235	0x3c88cf22	0.016700331
236	0x3d6b07ab	0.05738036
237	0xbe0c478b	-0.13699166
238	0xbe338c1c	-0.17533916
239	0x3915e4dd	0.00014295006
240	0xbe9dec5d	-0.30844393
241	0xbe53ba41	-0.20676519
242	0x3e45e1e7	0.19324456
243	0x3e87669b	0.2644547
244	0xbe7636cd	-0.24044342
245	0x3e29f1e4	0.1659618
246	0x3bd9377b	0.0066289282
247	0xbe77d878	-0.2420367
248	0xbe0e49a4	-0.13895279
249	0xbe0ae5b2	-0.13564184
250	0x3d39f40e	0.045398764
251	0x3e1d4f5c	0.15362304
252	0xbd01b1d2	-0.031663723
253	0xbcb7c1c3	-0.02243126
254	0xbc6b7075	-0.014370074
255	0x3e336489	0.1751882

attention_blocks.0.multihead_attn.out_proj.bias f4 [32]
0	0xbe064298	-0.13111341
1	0x3e0b5384	0.13606077
2	0x3d0dd2fd	0.034625042
3	0x3e331bc4	0.1749106
4	0xbd2d71c0	-0.04234481
5	0x3ce0efcc	0.027458094
6	0x3d3e4d9f	0.046460744
7	0xbd70cd6b	-0.05878965
8	0x3d9e2bac	0.077231735
9	0xbe0423ea	-0.12904325
10	0x3e0e8b39	0.13920297
11	0xbd6d9acb	-0.05800895
12	0xbd5fbc1a	-0.054622747
13	0x3e136e39	0.14397515
14	0x3cdd531c	0.027017169
15	0x3db49947	0.08818298
16	0x3d067906	0.03283026
17	0x3e1ba38a	0.15199104
18	0x3e04e3ac	0.12977475
19	0x3d8fd307	0.07022672
20	0x3cd4c5fe	0.025973316
21	0x3d399a4a	0.045313157
22	0xbc274842	-0.010210099
23	0xbe126ff3	-0.14300518
24	0xbd164e8a	-0.036695994
25	0x3d663e3c	0.056211695
26	0xbd94b841	-0.07261706
27	0xbe0c9f61	-0.13732673
28	0xbe19801b	-0.14990275
29	0x3d5ab051	0.053390805
30	0xbd3f7b38	-0.04674837
31	0x3defe739	0.11714024

attention_blocks.0.norm1.weight f4 [32]
0	0x3f2c9d54	0.67427564
1	0x3f109f12	0.5649272
2	0x3f191150	0.5979204
3	0x3f4c70cc	0.79859614
4	0x3f147d47	0.5800366
5	0x3f376ee0	0.71653557
6	0x3f242e30	0.64132977
7	0x3f5e67d1	0.8687716
8	0x3f3ca568	0.7368989
9	0x3f3f5998	0.74746084
10	0x3f487b20	0.78312874
11	0x3f495698	0.78647757
12	0x3f2e663f	0.68124765
13	0x3f557d53	0.83394355
14	0x3f1bcf24	0.60862947
15	0x3f28aa86	0.658852
16	0x3f170ab6	0.5900072
17	0x3f6bfd57	0.9218344
18	0x3f635aa7	0.888102
19	0x3f4c9dcf	0.79928297
20	0x3f350b04	0.70719934
21	0x3f59a003	0.85009784
22	0x3f1c4e2f	0.610568
23	0x3f5492f7	0.8303675
24	0x3f3554cb	0.7083251
25	0x3f4dc7c0	0.8038292
26	0x3f1c3d61	0.61031157
27	0x3f1738c6	0.59071004
28	0x3f1d22fa	0.61381495
29	0x3f35ca49	0.7101179
30	0x3f5ce371	0.8628455
31	0x3f574f6f	0.8410558

attention_blocks.0.norm1.bias f4 [32]
0	0xbe005fd1	-0.12536551
1	0x3dffe29d	0.12494395
2	0x3d1b8522	0.037968762
3	0x3e486dda	0.19573155
4	0xbd6fdc08	-0.058559448
5	0x3cf4d692	0.029887471
6	0x3cd63fc0	0.026153445
7	0xbd84d422	-0.064857736
8	0xbcc31738	-0.023814783
9	0xbe01e2d5	-0.12684186
10	0x3e08737c	0.13325304
11	0xbd8f0ac9	-0.06984479
12	0xbd7acc48	-0.061229974
13	0x3e1fff3c	0.15624708
14	0x3c87f5c0	0.016596675
15	0x3d8ec755	0.06971613
16	0x3d200608	0.03906825
17	0x3e253b8e	0.16136
18	0x3e0f2601	0.13979341
19	0x3da5ac3f	0.08089494
20	0x3d222ec1	0.03959537
21	0x3d5e3ab2	0.054255195
22	0xbd33a6b6	-0.04386016
23	0xbe216012	-0.15759304
24	0xbd3835d5	-0.044973213
25	0x3d885667	0.06657105
26	0xbd75af7a	-0.0599818
27	0xbdf744fb	-0.12073704
28	0xbe275d88	-0.16344273
29	0x3d307b44	0.043086305
30	0xbd729cf9	-0.059231732
31	0x3e1797c4	0.14803988

attention_blocks.0.norm2.weight f4 [32]
0	0x3f5f802b	0.87304944
1	0x3f1db2cb	0.6160094
2	0x3f418efb	0.75608796
3	0x3f4f7e66	0.81052244
4	0x3f4aef9d	0.7927187
5	0x3f384456	0.7197927
6	0x3f21fcb3	0.63276213
7	0x3f59961a	0.8499466
8	0x3f27fac3	0.65617007
9	0x3f5a8f60	0.8537502
10	0x3f1ffbf0	0.624938
11	0x3f4304b3	0.76179045
12	0x3f32f6db	0.6990792
13	0x3f4bd2c1	0.7961846
14	0x3f414b19	0.75505215
15	0x3f3d546b	0.73956937
16	0x3f2658ea	0.6497942
17	0x3f598eb6	0.84983385
18	0x3f303670	0.68833065
19	0x3f3b7b6e	0.73235214
20	0x3f5f6619	0.87265164
21	0x3f54c8d9	0.8311897
22	0x3f31ba6e	0.69425094
23	0x3f33118b	0.69948643
24	0x3f676ab6	0.903972
25	0x3f43e225	0.76516944
26	0x3f46c41a	0.7764298
27	0x3f58c1f9	0.8467098
28	0x3f1a652a	0.60310614
29	0x3f26b041	0.6511269
30	0x3f5ecd63	0.87032145
31	0x3f646ba8	0.8922677

attention_blocks.0.norm2.bias f4 [32]
0	0x3d0d5d54	0.034512833
1	0x3dc4f246	0.096165225
2	0x3cd80a5d	0.02637213
3	0x3e1ffb84	0.1562329
4	0xbcf0e297	-0.029404921
5	0x3cbdff75	0.0231931
6	0x3d3aca15	0.045602877
7	0xbd575181	-0.052567963
8	0x3d91d882	0.07121374
9	0x3d630b01	0.055430416
10	0x3dcbe3c5	0.09955553
11	0xbd6fe15b	-0.058564525
12	0xbd6c4076	-0.057678662
13	0x3e04095f	0.128942
14	0xbdfdefec	-0.12399277
15	0xbda7a67c	-0.08186051
16	0xbe06871b	-0.13137476
17	0x3e224d21	0.15849735
18	0xbd7a9503	-0.061177265
19	0xbdee1a3b	-0.11626097
20	0x3d4014de	0.0468949
21	0x3d5c1540	0.053731203
22	0x3cdc3858	0.026882336
23	0xbd85dee6	-0.06536655
24	0x3e21d260	0.15802908
25	0xbe090945	-0.13382442
26	0x3c913956	0.017727535
27	0x3d82d41c	0.06388113
28	0xbe046c83	-0.12932019
29	0x3d12475c	0.035712585
30	0xbd5bb2d5	-0.053637344
31	0x3dd981d3	0.10620465

attention_blocks.0.ff.0.weight f4 [128, 32]
0	0x3d3bf407	0.04588702
1	0xbe3fcbd7	-0.18730102
2	0x3b16c63a	0.0023006336
3	0xbd65fb7e	-0.056148045
4	0x3df1f61e	0.11814521
5	0xbd9a4e6d	-0.0753449
6	0x3d337d13	0.043820452
7	0xba8dc180	-0.0010815114
8	0x3d8732b8	0.06601471
9	0xbd625d4d	-0.05526476
10	0x3d56ffa3	0.052489888
11	0xbd992a8d	-0.07478819
12	0xbcc3c070	-0.023895472
13	0xbd96ef88	-0.07369906
14	0xbd53952e	-0.05165594
15	0xbdddb83f	-0.10826158
16	0x3d74155a	0.059590675
17	0xbde2a7ef	-0.11067187
18	0x3db5c811	0.0887605
19	0x3da80e18	0.08205813
20	0x3dc9e2e1	0.09857727
21	0x3e1f9f8b	0.15588205
22	0x3d02873a	0.031867243
23	0x3ddd2541	0.10798121
24	0x3e093d16	0.13402209
25	0xbd234cda	-0.039868213
26	0xbd81def1	-0.06341351
27	0x3da01638	0.07816738
28	0xbd8a3740	-0.06748819
29	0xbd86dc1f	-0.065849535
30	0x3d2d69bc	0.042337164
31	0xbd9b9298	-0.0759632
32	0x3d8cf369	0.06882364
33	0x3d80cfe4	0.06289652
34	0x3e43d9a9	0.19126
35	0x3dd4ee89	0.103970595
36	0xbd416202	-0.04721261
37	0x3cb9bf3e	0.0226742
38	0x3d5dc458	0.054142326
39	0xbcf49846	-0.029857766
40	0x3dba4b59	0.09096403
41	0x3e1a2fdd	0.15057321
42	0xbdbf6fcd	-0.09347496
43	0xbd69ba7d	-0.057062615
44	0xbe2fd978	-0.17172801
45	0xbdde139e	-0.108435854
46	0xbd33abfd	-0.043865193
47	0x3d9366ec	0.07197365
48	0xbe0612c0	-0.1309309
49	0xbe04f859	-0.12985362
50	0xbdf0c3b9	-0.11756081
51	0xbb9646a0	-0.004586056
52	0x3d2b276d	0.041785646
53	0xbd4258d2	-0.047447987
54	0xbdb82d2f	-0.08992993
55	0xbda4a30a	-0.0803891
56	0xbe061371	-0.13093354
57	0xbdc911c1	-0.098178394
58	0xbbd1b285	-0.006399455
59	0x3da1e26e	0.07904516
60	0xbda84a3e	-0.082172856
61	0x3d4cb97f	0.04998159
62	0xbe285dd8	-0.16442049
63	0xbd96920b	-0.07352074
64	0x3847ef22	4.7668007e-05
65	0x3dba694f	0.09102117
66	0xbbdd427d	-0.006752311
67	0x3d1f5784	0.03890182
68	0xbe34aa3f	-0.17643069
69	0x3c92d9ff	0.017926214
70	0x3e470809	0.19436659
71	0x3d6a5431	0.057209197
72	0x3e7952f1	0.24348046
73	0x3e2462a7	0.16053258
74	0x3ce8bebe	0.028411265
75	0x3e806cd4	0.2508303
76	0xbbda6d57	-0.0066658664
77	0x3c90a0db	0.017654827
78	0x3e13a0ec	0.14416856
79	0x3d06fa93	0.03295381
80	0xbbff17f0	-0.007784836
81	0xbe4b9380	-0.19880486
82	0xbdc6fad8	-0.097158134
83	0xbd8764ae	-0.06611
84	0x3e0c76b4	0.13717157
85	0x3cdd2526	0.026995253
86	0xbde101f9	-0.109867044
87	0x3dd30d34	0.10305253
88	0xbe3332d5	-0.1749986
89	0xbe26bde5	-0.16283377
90	0x3cb5a36d	0.022172654
91	0x3d8d9875	0.069138445
92	0x3da9e1d4	0.082950264
93	0x3d352a65	0.044229884
94	0xbe1c1fb0	-0.15246463
95	0xbd003151	-0.03129703
96	0x3d2677c3	0.040641557
97	0xbd72c1f0	-0.059266984
98	0x3d84dcc0	0.06487417
99	0x3e171c8b	0.14756982
100	0xbce3f8d1	-0.027828606
101	0xbd884c40	-0.066551685
102	0x3d460e7c	0.048353657
103	0xbe2cd8d6	-0.16879591
104	0x3e087d17	0.13328968
105	0x3cf71195	0.030159751
106	0xbcae0a71	-0.021245213
107	0x3c91810c	0.01776173
108	0x3d65d858	0.056114525
109	0x3e112405	0.14173897
110	0x3bb34573	0.0054709255
111	0xbccac9d8	-0.02475445
112	0xbc3ed0fb	-0.0116465045
113	0xbe100cd0	-0.14067388
114	0xbda60736	-0.08106844
115	0xbd7e7790	-0.062125742
116	0x3dbcd1d9	0.09219713
117	0x3e03c6cb	0.12868802
118	0xbdafdf70	-0.08587539
119	0xbcf1ff74	-0.029540755
120	0xbdc5cae3	-0.09657838
121	0xbe25271f	-0.16128205
122	0xbd7cefcc	-0.061752126
123	0xbc7ffa26	-0.015623605
124	0x3d0dc757	0.034613933
125	0xbd21ea6c	-0.039530203
126	0xbe0297cc	-0.12753218
127	0x3d4ba7f8	0.049720734
128	0xbd7b17c4	-0.06130196
129	0xbdf0c358	-0.11756009
130	0x3deb65ca	0.11494024
131	0xbe40c7a4	-0.18826157
132	0xbc8483c0	-0.016176105
133	0xba530039	-0.00080490444
134	0x3d1f04ab	0.03882281
135	0xbd389e2a	-0.045072712
136	0x3e0ececc	0.13946074
137	0xbd3f243a	-0.046665408
138	0x3d43b20d	0.047777224
139	0x3e12f358	0.14350641
140	0xbe195d36	-0.14976963
141	0xbe53bc5b	-0.2067732
142	0x3dbca9ff	0.09212112
143	0x3e75577c	0.23959154
144	0xbd8c8d49	-0.068628855
145	0x3cd0e20d	0.025498414
146	0xbd7d9278	-0.06190726
147	0xbde1449c	-0.10999414
148	0xbdfe35ac	-0.12412581
149	0x3d1f7d65	0.038937945
150	0xbe2bcff5	-0.16778548
151	0x3c55a746	0.013040369
152	0xbe4e27e8	-0.2013241
153	0xbe443708	-0.19161618
154	0xbd9271ec	-0.07150635
155	0xbd7eca76	-0.0622048
156	0x3cb8d120	0.022560656
157	0x3df2fa7f	0.118641846
158	0x3e153df3	0.14574413
159	0xbde8fac6	-0.11375956
160	0x3d9a28b9	0.075272985
161	0xbb2568ab	-0.002523939
162	0xbd32885c	-0.043587074
163	0xbda0a057	-0.078430824
164	0xbd46f42e	-0.04857271
165	0x3dc6c00b	0.09704598
166	0x3d5cea20	0.053934216
167	0xbdea2f4a	-0.11434801
168	0xbb82d161	-0.003992245
169	0x3d30ad15	0.043133814
170	0x3d53a6b9	0.05167267
171	0xbcb56519	-0.022142934
172	0xbc551ac6	-0.013006872
173	0xbc2dec74	-0.010615457
174	0xbd3bb618	-0.045827955
175	0xbcd3f887	-0.025875343
176	0xbd81e563	-0.0634258
177	0xbe252ef7	-0.16131197
178	0x3d970b12	0.07375158
179	0x3d06f59e	0.032949083
180	0x3d77d393	0.060504507
181	0xbc9c558c	-0.01908376
182	0x3de148a2	0.11000182
183	0x3e1a7a29	0.15085663
184	0x3cdb4dae	0.026770439
185	0x3cde37d1	0.027126225
186	0x3dbb21c5	0.091373004
187	0xbb11fb08	-0.002227487
188	0xbdabfdbd	-0.08398006
189	0x3dbf1ccf	0.09331667
190	0xbdf79605	-0.12089161
191	0xbdb92055	-0.0903937
192	0xbcfd143f	-0.030893443
193	0xbdadb0c9	-0.08480985
194	0x3daa45d7	0.08314102
195	0xbd73bc52	-0.059505768
196	0x3c87c082	0.016571287
197	0xbd806dcf	-0.06270944
198	0xbdf4e199	-0.11957092
199	0x3b86d4fb	0.0041147447
200	0x3e2b5c04	0.1673432
201	0xbdaef1f7	-0.08542245
202	0x3d7363fe	0.05942153
203	0x3e081c9d	0.13292165
204	0xbe04c775	-0.12966712
205	0xbd86d2a9	-0.06583149
206	0xbdb42f97	-0.087981395
207	0x3d6a16b7	0.05715057
208	0xbd96c635	-0.07362024
209	0xbd7dac4d	-0.061931897
210	0xbdc14267	-0.09436493
211	0xbcdab20a	-0.026696224
212	0xbd0144f5	-0.031559903
213	0x3d174687	0.036932494
214	0xbcc801f6	-0.024414998
215	0xbda0889d	-0.07838557
216	0xbd7ba773	-0.06143899
217	0x3d8f4284	0.06995109
218	0xbd0d6068	-0.03451577
219	0x3d034176	0.03204485
220	0xbda0d788	-0.07853609
221	0x3e042df9	0.12908162
222	0xbe05d7cc	-0.13070601
223	0x3cb63804	0.022243507
224	0xbcef3ffb	-0.029205313
225	0x3dc57c42	0.09642841
226	0x3c8eb54e	0.017420437
227	0xbdc54a71	-0.09633339
228	0xbcc025fe	-0.023455616
229	0xbd22e41c	-0.039768323
230	0x3e8246ce	0.25444645
231	0x3dbf20e1	0.09332443
232	0xbd130daf	-0.03590172
233	0x3e28a974	0.16470891
234	0xbda329fb	-0.079669915
235	0x3df2ebab	0.11861356
236	0xbc9328eb	-0.017963847
237	0xbe68ef20	-0.22747469
238	0x3e5d75ec	0.21627015
239	0x3d4e7e63	0.0504135
240	0x3e38c72c	0.18044728
241	0xbd5c9a9c	-0.053858384
242	0xbcab99c2	-0.02094734
243	0xbd60141f	-0.05470669
244	0xbd583708	-0.052786857
245	0xbd598054	-0.0531009
246	0xbe7924f8	-0.24330509
247	0x3d84f905	0.06492809
248	0x3d24fd97	0.040280905
249	0xbd8029ca	-0.06257971
250	0x3baaf5b4	0.0052172784
251	0x3c18d2c0	0.00932759
252	0x3cef632c	0.029222094
253	0xbba34bed	-0.0049834163
254	0x3d35f6e1	0.044424895
255	0xbe1621e8	-0.14661372

attention_blocks.0.ff.0.bias f4 [128]
0	0x3cf59495	0.029978076
1	0xbe29f167	-0.16595994
2	0xbe0df607	-0.13863383
3	0xbd8bb1e9	-0.06821043
4	0xbc7e3ca2	-0.015517386
5	0xbd50b72e	-0.050955944
6	0xbe068246	-0.13135633
7	0xbcf564b7	-0.029955251
8	0xbe1d013d	-0.15332504
9	0xbc805fd3	-0.015670693
10	0xbc7cf7ec	-0.015439969
11	0xbe10a8a5	-0.14126833
12	0xbe4b0502	-0.19826129
13	0xbe060ae3	-0.1309009
14	0xbd907e16	-0.07055299
15	0x3d1c8390	0.038211405
16	0x3d97177d	0.07377527
17	0xbe03c23b	-0.12867062
18	0xbd449135	-0.047990043
19	0xbdb207bd	-0.08692882
20	0x3d880e5a	0.06643362
21	0xbdc146f9	-0.09437365
22	0x3d14625a	0.036226608
23	0xba80906e	-0.0009808668
24	0xbd42d0e3	-0.04756249
25	0x3ec67041	0.38757518
26	0x3d2c7db1	0.042112056
27	0xbd98e12a	-0.07464822
28	0x3cba4d05	0.022741804
29	0x3d25a3f5	0.040439565
30	0xbd15a3af	-0.036533054
31	0xbe66d3cc	-0.22541732
32	0xbd9ed35e	-0.07755159
33	0x3cae094b	0.021244666
34	0xbe3fe1b7	-0.18738447
35	0xbd636386	-0.055514835
36	0x3d15c438	0.036564082
37	0x3b5f63a9	0.0034086502
38	0xbd321534	-0.043477252
39	0x3cd69711	0.026195081
40	0x3d85053d	0.0649514
41	0xbdec5587	-0.115397505
42	0x3cd007f3	0.025394415
43	0xbd458cc6	-0.048229955
44	0xbd5cf5ee	-0.053945474
45	0xbd9456f8	-0.072431505
46	0xbdd23ad8	-0.1026513
47	0x3e3f952b	0.18709247
48	0xbdcdbf24	-0.10046223
49	0xbc5326ec	-0.012887698
50	0xbdb23a7a	-0.0870256
51	0x3e026a9a	0.12735978
52	0xbe06a57d	-0.13149066
53	0x3c6c3cea	0.01441882
54	0x3d0988e6	0.033577822
55	0x3dac7b18	0.08421916
56	0xbe164075	-0.14673026
57	0x3db3bcc4	0.087762386
58	0x3db8d5fd	0.0902519
59	0x3d32475c	0.043525085
60	0xbcc4bfb8	-0.0240172
61	0x3d3f64bf	0.04672694
62	0xbdf37339	-0.11887211
63	0xbdfb6d0c	-0.122766584
64	0x3cf4c3b3	0.029878473
65	0x3d76c02e	0.06024187
66	0xbd03d550	-0.032185853
67	0x3e1ea3a6	0.15492114
68	0xbe01a0b7	-0.12658964
69	0x3cf25acd	0.029584313
70	0x3d8f9034	0.070099264
71	0xbd06c85c	-0.03290592
72	0x3d72aaa3	0.059244763
73	0xbdfbd421	-0.1229632
74	0xb8d4e976	-0.00010152433
75	0xbe00741a	-0.12544289
76	0xbd6b5981	-0.057458404
77	0xbcb54da8	-0.022131756
78	0x3e254336	0.1613892
79	0x3d70eb55	0.05881818
80	0xbd916cbe	-0.07100819
81	0xbd305c5b	-0.043056827
82	0xbd973222	-0.07382609
83	0xbd8b36be	-0.067975506
84	0xbdef3c85	-0.11681465
85	0xbe31c23b	-0.1735925
86	0xbd87f68d	-0.06638823
87	0xbe024fc2	-0.12725738
88	0x3d018354	0.031619385
89	0xbe190117	-0.14941822
90	0xbde3da74	-0.11125651
91	0xbd3d6230	-0.046236217
92	0x3e427bbe	0.18992516
93	0x3d691023	0.056900155
94	0x3e96e148	0.2946875
95	0xbe00de06	-0.12584695
96	0xbdcef7a2	-0.10105826
97	0x3e23048f	0.15919708
98	0xbe12ab40	-0.14323139
99	0xbd8c194d	-0.06840763
100	0x3d94a4df	0.07258009
101	0xbd73a234	-0.05948086
102	0xbde8ff8f	-0.11376869
103	0x3be9d079	0.0071354476
104	0x3d7734da	0.060353138
105	0xbdb33e4d	-0.08752117
106	0x3e0cf562	0.13765481
107	0xbde007f5	-0.10939018
108	0x3e4201fa	0.18946066
109	0xbd8e49a8	-0.069476426
110	0xbd88bf93	-0.06677165
111	0xbcec4b51	-0.028844507
112	0xbe068451	-0.13136412
113	0xbd852378	-0.06500906
114	0x3dc2acf7	0.09505647
115	0xbe24a77a	-0.16079512
116	0xbcccca0e	-0.024998691
117	0x3dac3f6d	0.08410535
118	0xbd0e1b29	-0.03469387
119	0xbde8145a	-0.11332007
120	0xbc5b8283	-0.013397816
121	0xbdb5563b	-0.08854338
122	0xbe44ff4e	-0.19238016
123	0x3cb893b0	0.02253136
124	0xbe01c2b2	-0.12671927
125	0xbc9e681c	-0.019336753
126	0xbe2d770a	-0.16939941
127	0xbe173b22	-0.14768651

attention_blocks.0.ff.2.weight f4 [32, 128]
0	0xbda9dae7	-0.082937054
1	0xbd47e6a3	-0.048803937
2	0xbdcb322b	-0.09921678
3	0x3d278bde	0.040904872
4	0x3d99169a	0.07475014
5	0xbc6d2f14	-0.014476556
6	0xbbe36449	-0.006939445
7	0xbc9fdcca	-0.01951446
8	0x3dc79dcf	0.097468965
9	0x3e302639	0.17202081
10	0x3ca86545	0.020556102
11	0x3dec3e3e	0.11535309
12	0xbcd6f997	-0.02624206
13	0xbd9e5210	-0.07730496
14	0xbd811d6d	-0.06304441
15	0x3c863a84	0.016385324
16	0xbdd39e85	-0.103329696
17	0x3e15f1c4	0.14643008
18	0xbd77cc9a	-0.060497858
19	0xbcf7989b	-0.030224135
20	0xbdadd932	-0.08488692
21	0xbd942fcb	-0.07235678
22	0x3d2468f0	0.04013914
23	0xbbcd4627	-0.0062644663
24	0x3d12efa9	0.03587309
25	0x3e9cd013	0.30627498
26	0xbda73034	-0.08163491
27	0x3cf5b9bd	0.029995793
28	0xbd7ffbaa	-0.062495865
29	0x3c96c303	0.018403536
30	0xbd230b70	-0.03980583
31	0xbdbc5973	-0.091967486
32	0x3d886f30	0.06661832
33	0x3c8c9144	0.017159112
34	0x3dcc15c8	0.09965092
35	0xbda0e270	-0.078556895
36	0x3d190bbe	0.037364714
37	0xbbfdb6e6	-0.0077427505
38	0x3e086c73	0.1332262
39	0xbdd73239	-0.10507626
40	0x3e8ea46e	0.27859825
41	0xbd8d7cdc	-0.06908581
42	0xbdbac000	-0.09118652
43	0xbdcf52cd	-0.10123215
44	0x3db7bea5	0.089719094
45	0xbd878e1e	-0.066189036
46	0xbcca868a	-0.024722356
47	0x3e72cce8	0.23710978
48	0x3bbaa6ae	0.0056961393
49	0x3d327942	0.04357267
50	0x3eb74a88	0.3579905
51	0x3e68e26c	0.22742623
52	0x3d065ed3	0.032805275
53	0x3cf281eb	0.029602965
54	0xbdcbe049	-0.099548884
55	0x3cd3f6e3	0.02587456
56	0xbc20f0ab	-0.009823005
57	0x3dc658bc	0.096848935
58	0xbd9bf2ad	-0.07614646
59	0x3e79b533	0.24385528
60	0x3e0eb68b	0.13936822
61	0x3e62a515	0.22133286
62	0x3d766209	0.060152087
63	0x3d6cf0d1	0.057846848
64	0xbcefa0b2	-0.02925143
65	0xbd3e7a47	-0.04650333
66	0x3daeb44e	0.08530484
67	0xbe2da02b	-0.1695563
68	0x382c1a31	4.103239e-05
69	0xbd580874	-0.052742437
70	0xbc70a867	-0.014688588
71	0x3d50aaf8	0.0509443
72	0xbcabb31e	-0.020959433
73	0xbd79977f	-0.060935494
74	0xbc77a683	-0.015115383
75	0xbc89acbb	-0.016805997
76	0xbdaf16c3	-0.08549263
77	0xbbdd4448	-0.0067525245
78	0x3d3ebf14	0.046568945
79	0x3e186a43	0.14884286
80	0x3d76f1ee	0.060289316
81	0xbd9d3d55	-0.07677714
82	0xbcdb5d4b	-0.026777884
83	0xbdd1ac7e	-0.102379784
84	0xbd0d9c8f	-0.034573134
85	0x3e7ec16a	0.24878469
86	0x3b70b7fa	0.0036730752
87	0x3d5ff550	0.054677308
88	0x3d198ca1	0.03748763
89	0xbc07bdec	-0.008285027
90	0xbda57fda	-0.080810264
91	0xbd87b192	-0.06625666
92	0x3e05ad65	0.13054426
93	0x3e0e4703	0.13894276
94	0x3dcb2f69	0.09921152
95	0xbdbce2ba	-0.09222932
96	0x3e2c6211	0.16834284
97	0xbd964bc8	-0.07338673
98	0xbdc26f09	-0.094938345
99	0xbaa5917b	-0.0012631858
100	0xbcefa4db	-0.029253414
101	0xbd95ba1f	-0.073108904
102	0xbd92c842	-0.071671024
103	0xbc7ab9d2	-0.015303092
104	0xbd8b915a	-0.06814833
105	0xbbc8a791	-0.006123491
106	0x3c93d534	0.018046
107	0x3e4328b4	0.19058496
108	0x3e8789a4	0.264722
109	0xbb5e6bca	-0.003393876
110	0x3dd6e80f	0.104934804
111	0x3ccee249	0.025254386
112	0xbd80502d	-0.06265292
113	0xbd53e1ec	-0.051729128
114	0xbd966862	-0.07344128
115	0x3d260f11	0.040541712
116	0xbd32aaad	-0.0436198
117	0xbdb959e2	-0.09050347
118	0x3d58e296	0.052950464
119	0x3d8f391f	0.06993317
120	0xbda70185	-0.08154587
121	0xbbbbcc23	-0.005731122
122	0x3c874621	0.016512932
123	0x3dc5380b	0.0962983
124	0x3b9ddaea	0.0048173564
125	0xbb97bfc7	-0.004631016
126	0x3d4915e9	0.04909316
127	0x3ca152f6	0.01969288
128	0x3d87b836	0.06626932
129	0xbdb6f77a	-0.08933921
130	0x3da0093d	0.07814262
131	0x3b24544e	0.0025074664
132	0xbe084294	-0.13306648
133	0x3da9bc9c	0.082879275
134	0x3cf9cf0a	0.030494232
135	0x3dfd88b5	0.123795904
136	0xbd48d4ca	-0.049031056
137	0x3e276440	0.16346836
138	0xbce74f9b	-0.028236201
139	0x3daf6ef7	0.08566087
140	0x3c183420	0.009289771
141	0x3bbaee61	0.0057046865
142	0xbc1edfbf	-0.0096969
143	0x3da8673f	0.08222818
144	0x3dab9dcd	0.083797075
145	0x3c86cada	0.016454149
146	0x3d100193	0.03515775
147	0xbd2e8cd7	-0.042614784
148	0x3d9dcdd9	0.07705278
149	0xbd8575bf	-0.06516599
150	0xbd277b9e	-0.040889375
151	0x3d4d3ef4	0.050108865
152	0xbd7e5e7c	-0.062101826
153	0x3da254d6	0.079263374
154	0x3d76a714	0.060217932
155	0xbcfe6c82	-0.0310576
156	0xbd337744	-0.043814912
157	0x3c5c4fe9	0.013446786
158	0x3cd05d82	0.025435213
159	0xbd7caaba	-0.061686255
160	0x3c95c6e4	0.018283315
161	0xbc440f92	-0.011966603
162	0x3d9ef0ac	0.07760748
163	0x3d3cd4cc	0.046101376
164	0x3cc53bbf	0.02407634
165	0x3c863392	0.016382013
166	0x3debb15e	0.115084395
167	0xbc04ddc1	-0.008109511
168	0x3bfc24a4	0.0076947976
169	0x3dcd68b6	0.10029738
170	0x3d59eb8c	0.05320315
171	0x3d63d6d0	0.055624783
172	0x3caa48b9	0.02078663
173	0xba41edec	-0.0007397819
174	0xbd32753f	-0.043568846
175	0xbdcdc4b1	-0.100472815
176	0xbd4b4fa3	-0.049636494
177	0xbd4956aa	-0.049154915
178	0x3e822042	0.25415236
179	0xbdec911b	-0.11551114
180	0x3dc77fd2	0.09741177
181	0x3e2eec31	0.17082287
182	0x3d8ed4c5	0.06974176
183	0xbd8689fd	-0.06569288
184	0x3d93f4bd	0.072244145
185	0x3dd13040	0.10214281
186	0xbd8e8c6d	-0.06960378
187	0x3cda5840	0.026653409
188	0x3de3c5d7	0.11121719
189	0xbc814535	-0.01578007
190	0x3cd086ca	0.025454897
191	0x3cb321b3	0.021866655
192	0x3de2b584	0.110697776
193	0xbd336033	-0.043792915
194	0x3dca02d6	0.09863822
195	0x3f21f049	0.6325727
196	0x3d42285c	0.04740177
197	0xbd833c60	-0.06408
198	0xbd20506d	-0.0391392
199	0xbd506460	-0.050876975
200	0x3d93aab7	0.07210296
201	0x3c75eb99	0.015009784
202	0xbbf30a79	-0.00741702
203	0x3def3b2c	0.11681208
204	0xbdb5d5db	-0.0887868
205	0x3bb1722f	0.005415223
206	0x3e27b28b	0.16376702
207	0x3d950b64	0.07277563
208	0x3db4d5db	0.08829852
209	0x3c53b2f5	0.012921085
210	0xbd3bbe68	-0.045835882
211	0xbc3b5618	-0.011434101
212	0x3de120c5	0.109925784
213	0x3da906a8	0.08253223
214	0xbc7da6c1	-0.015481652
215	0x3cbf7a45	0.023373732
216	0x3de46973	0.11152925
217	0x3d6a5b9c	0.05721627
218	0xbcb07914	-0.02154211
219	0xbc71285e	-0.014719097
220	0x3c83bd32	0.016081426
221	0x3d83dd6a	0.06438716
222	0x3ce842b3	0.028352117
223	0xbd9b6116	-0.07586877
224	0x3dbdc66a	0.0926636
225	0x3b048976	0.0020223535
226	0xbca90d8e	-0.020636346
227	0xbba165cf	-0.0049254666
228	0xbd6d1638	-0.057882518
229	0xbd0c9d5b	-0.034329753
230	0xbc23311b	-0.009960438
231	0xbd3a5fe4	-0.045501605
232	0x3adacb92	0.0016692749
233	0x3c69cc44	0.014269892
234	0xbd3c540e	-0.0459786
235	0x3c901b46	0.01759113
236	0x3dee2c3a	0.11629529
237	0xbd7eeb63	-0.0622362
238	0x3cc74c8b	0.02432849
239	0x3ddef4b2	0.10886516
240	0x3ccdd8bf	0.025127767
241	0x3bf35f31	0.007427119
242	0x3ccd775b	0.025081327
243	0x3e026f34	0.12737733
244	0xbda18996	-0.078875706
245	0x3cac46df	0.021029888
246	0x3d1b1200	0.037858963
247	0xbda28284	-0.0793505
248	0xbb05434e	-0.0020334306
249	0xbcb00502	-0.021486763
250	0x3e0f03b9	0.13966264
251	0xbd6284ce	-0.055302434
252	0xbc8f5d22	-0.017500464
253	0xbe200d33	-0.15630035
254	0x3d41741a	0.047229864
255	0x3c8e3c95	0.017362872

attention_blocks.0.ff.2.bias f4 [32]
0	0xbd0bcf9e	-0.034133546
1	0x3e12e48c	0.14344996
2	0xbc3d1c5e	-0.011542408
3	0x3d926e47	0.0714994
4	0xbd16490a	-0.03669075
5	0xbcc552cf	-0.024087338
6	0x3d7714cf	0.06032258
7	0xbc6f909b	-0.014621879
8	0x3d6b5f17	0.05746373
9	0x3d86b51e	0.06577514
10	0x3de8f80b	0.113754354
11	0xbb1c4f7d	-0.002385109
12	0xbdd73aa4	-0.10509232
13	0x3d8f1507	0.069864325
14	0xbdadbbc5	-0.0848308
15	0x3b8026c6	0.003910872
16	0xbddb5b61	-0.107107885
17	0x3e05d687	0.13070117
18	0x3bb4d5fa	0.005518672
19	0xbd9c0422	-0.07617976
20	0xbccb5833	-0.02482233
21	0x399ac27a	0.00029518065
22	0x3db5e6c5	0.088819064
23	0xbdc2d803	-0.09513857
24	0x3e04ec89	0.12980856
25	0xbe3d39c3	-0.18479066
26	0xbd3aa421	-0.04556668
27	0x3d020001	0.031738285
28	0xbdd5223a	-0.10406919
29	0x3ccba9c9	0.024861233
30	0xbd1c995e	-0.0382322
31	0x3c8b73e0	0.017023027
