results/recommendation_model.pth (torch, 299183 bytes, 6 tensors)

lstm.weight_ih_l0 f4 [512, 12]
000000 b9 94 8e 3f b7 08 a0 3f d2 0c 99 be e0 2e 68 be
       1.1139137 1.250266 -0.29892594 -0.22674131
000010 a9 9f 7b 3f 3f cb 5e 3f 8c a8 a6 3f 2f a1 5a 3f
       0.982905 0.8702888 1.3020186 0.85402197
000020 45 e5 70 3f 0f c7 8c 3f e6 fc 7e 3f a5 3a 87 3f
       0.9409984 1.0998248 0.9960464 1.0564772
000030 c3 d6 6d 3f f4 81 47 3f e3 96 90 3f b0 51 8c 3f
       0.92905825 0.7793267 1.1296047 1.0962429
000040 2e 32 e3 3e 7c f8 c6 3f 06 14 30 3f 7b bb d1 3f
       0.44374222 1.5544581 0.68780553 1.638534
000050 a9 5b f4 3e 2c d7 85 3f 16 a3 64 3f 8b 96 5a 3f
       0.4772618 1.045629 0.8931135 0.8538596
000060 79 db 8b 3f 61 96 93 3f 7a 4d 79 bf 06 ff 7d bf
       1.0926353 1.1530267 -0.97383845 -0.9921726
000070 e7 79 93 3f 55 36 a6 3f 65 db 8e 3f 0f 26 9a 3f
       1.1521577 1.2985331 1.1160704 1.2042865
000080 cb ae 91 3f a5 4d 89 3f b5 57 a2 3d 5b a1 1d 3e
       1.1381468 1.072682 0.07926885 0.15393583
000090 4a 54 fb 3f b8 74 99 bf b9 b2 b1 bf 64 07 a8 bf
       1.9635098 -1.1988745 -1.3882667 -1.3127255
0000a0 21 b3 ab 3f cc 23 cd 3f ce fd 9e bf 22 fd bd 3f
       1.3414041 1.6026549 -1.2421205 1.4842875
0000b0 3a 8e ab 3f 52 08 fc 3f 7c 35 b8 3f 73 ee b3 3f
       1.3402779 1.9690039 1.4391322 1.4057144
0000c0 cd f2 6b 3f 8c 8f 96 3f c8 23 a3 3f 8f d4 99 3f
       0.9216736 1.1762557 1.2745295 1.2017993
0000d0 fd 6d 35 3f a1 96 aa 3f 47 6e a3 3f 77 b5 b6 3f
       0.70870954 1.3327218 1.2768029 1.4274129
0000e0 8a 20 25 3f de 5d 7a 3f b5 f4 92 3f 7a d7 a2 3f
       0.64502776 0.9779948 1.1480929 1.2722008
0000f0 da d2 55 3e 7b 10 6e 3f 90 83 ad 3f 74 1c b3 3f
       0.20881215 0.929939 1.3555775 1.3993058
000100 51 f5 33 3f dd ea a1 3f d4 85 78 3f 91 77 9c 3f
       0.702962 1.26498 0.97079206 1.2223989
000110 95 36 24 3f 22 a7 20 3e e4 8a 7b 3f f6 12 91 3f
       0.64145786 0.15688756 0.98258805 1.1333911
000120 fe 2d f1 be fa 62 f7 3f ad dc 40 bf 55 40 36 bf
       -0.47105402 1.932708 -0.75336725 -0.7119191
000130 43 ec e4 be 40 4e 8e 3f 25 89 02 40 71 07 9b 3f
       -0.44711503 1.111763 2.0396206 1.2111646
000140 a3 57 d3 be a0 f3 c1 be 3b 38 37 3e eb 52 45 3e
       -0.412778 -0.37881184 0.17892544 0.19269912
000150 17 b5 7e 3e 23 8a 6c 3f c1 31 ea be c0 34 f5 be
       0.24873768 0.9239828 -0.45741084 -0.47891808
000160 7e 7a b3 3e 77 95 ad 3f cc 47 73 3f 30 81 aa 3f
       0.35054392 1.3561238 0.9503143 1.3320675
000170 a5 45 9d 3e e2 6f 3e 3e 6c c5 a7 3f d8 8e ad 3f
       0.30717197 0.18597367 1.3107123 1.3559217
000180 23 a2 dd 3e 0b f4 ea 3f 6b 07 88 be 33 ac 28 be
       0.43287763 1.8355726 -0.2656816 -0.16471939
000190 44 cc 88 3f df d5 af 3f 3e 29 d6 3f a8 99 b9 3f
       1.0687337 1.3737143 1.6731336 1.4500017
0001a0 9d d2 78 3f fc 5f f6 3e c3 5e 3a bf fa fc 51 bf
       0.9719637 0.48120105 -0.72800845 -0.82026637
0001b0 d2 68 67 3f c8 de 8d 3f 0d 1d 87 3f 98 54 8c 3f
       0.9039432 1.1083612 1.055574 1.0963316
0001c0 21 a2 87 3f a0 58 94 3f 2a da 8d 3f 5d 80 99 3f
       1.0596353 1.1589546 1.1082203 1.1992298
0001d0 97 5f 83 3f fb 1f 6a 3f c7 f1 94 3f 76 74 9c 3f
       1.0263547 0.9145505 1.1636285 1.2223041
0001e0 c1 6a 97 3f 0d 0f 3c 3f c3 e5 13 3f 28 34 22 3f
       1.1829454 0.73460466 0.57772464 0.63360834
0001f0 fe f8 7c 3f fc 72 90 3f 62 89 3e 3f a8 51 94 3f
       0.9881743 1.128509 0.7442838 1.158742
000200 ae 64 8a 3f d5 e3 9d 3f b4 0c 58 3f f7 ea 65 3f
       1.0811975 1.2335154 0.84394383 0.8981165
000210 a9 a2 a5 3f 28 ab 9f 3f 34 bb 67 3f 45 2c 67 3f
       1.2940265 1.2474108 0.90520024 0.90301925
000220 4b ad 87 3f b1 d5 43 3f ec 41 a6 3f 7b d4 43 3f
       1.059976 0.7649794 1.2988868 0.76496094
000230 d8 b2 6c 3f 21 a4 a7 3f d8 cb 7c 3f fd 13 77 3f
       0.92460394 1.3096963 0.9874854 0.96514875
000240 2e 51 a0 3f bf 53 28 3f 2f 34 34 3e ea eb 23 3e
       1.2524774 0.65752786 0.17598031 0.16007963
000250 96 5b 27 3f 2e 63 90 3f 7f a4 45 3f da 82 8f 3f
       0.65374124 1.1280267 0.77204126 1.1211808
000260 22 97 42 3f e5 d6 8e 3f 4f a4 94 3f 1c 09 a5 3f
       0.7601186 1.1159331 1.1612643 1.2893405
000270 cc 97 ae 3f d2 09 f2 3e b0 f5 6b 3e 2f 4c 6c 3e
       1.3640075 0.47273117 0.23042941 0.23075937
000280 db ec 81 3f 71 47 8d 3f 6b 66 0e 3f ae 25 99 3f
       1.0150408 1.1037427 0.5562503 1.1964624
000290 0e af 82 3f ff e3 ad 3f 14 f8 71 3f b3 8a 70 3f
       1.0209672 1.3585204 0.9451916 0.9396164
0002a0 d4 fa 89 3f 9c c6 9b 3f 89 90 6a 3f b1 8d 54 3f
       1.0779672 1.2169986 0.91626793 0.83028704
0002b0 b4 72 a8 3f 2d 89 0e bf d0 96 9a 3f 21 0d 1b bf
       1.3160005 -0.55678064 1.2077274 -0.6056691
0002c0 c3 2b 97 3f cf 4f 87 3f ab ec 97 3e b2 50 98 3e
       1.181023 1.0571231 0.2967275 0.29749066
0002d0 a0 c2 9f 3f b7 b7 80 3f a6 a7 5b 3f 47 bb 6d 3f
       1.248127 1.0056065 0.85802686 0.9286389
0002e0 08 a9 41 bf c1 34 96 3f 11 f5 83 3f ea ad 88 3f
       -0.75648546 1.1734849 1.0309163 1.0678074
0002f0 e9 85 33 bf 5d 40 aa 3f 3a ab b6 3f e5 2e b2 3f
       -0.70126206 1.3300892 1.4271004 1.3920561
000300 76 47 b5 3f 43 01 9c 3f 4a d0 8f bf c9 82 8d bf
       1.4162433 1.2187885 -1.123544 -1.1055537
000310 28 42 80 3f b8 e1 8c 3f c7 b3 a7 3f 47 43 8d 3f
       1.0020189 1.1006384 1.3101739 1.1036156
000320 1e 45 88 3f ad 3f b1 3f 02 8c 95 bb 17 a6 e4 bd
       1.0646093 1.3847557 -0.0045638094 -0.111644916
000330 8f b6 36 3f 62 b9 ae 3f 9f 14 11 3f c4 c0 1f 3f
       0.7137231 1.3650324 0.5667209 0.6240351
000340 9f df 1b 3f 4c 1a 7c 3f 16 ed b2 3f e0 83 75 3f
       0.60888094 0.98477626 1.3978603 0.9590435
000350 ee e7 1c 3f 2f dc 3d 3f ff f1 ad 3f 7b c7 ad 3f
       0.61291397 0.741641 1.3589476 1.3576502
000360 fe 35 3f 3f fa 8f d5 bc 2b a8 78 3f 37 1c 7b 3f
       0.7469176 -0.02606963 0.97131604 0.9808993
000370 86 82 81 3f 1d 90 91 3f 59 e3 9b bd 2b 86 95 3f
       1.0117958 1.1372105 -0.076117225 1.168157
000380 ef 67 84 3f e4 f2 2b 3f ad 61 b8 3f f4 ec ad 3f
       1.0344218 0.67167497 1.4404808 1.3587937
000390 4a 12 8b 3e 9b b8 8d 3f f7 05 91 3f 3f a2 99 3f
       0.2716239 1.1071962 1.1329945 1.2002639
0003a0 09 e0 47 3f 2c 49 92 3f 30 ee 74 3f 9a 26 9e 3f
       0.78076226 1.142858 0.95675945 1.235553
0003b0 90 6c 4b 3f cf c8 bc 3e 59 c4 a8 3f e4 31 a2 3f
       0.7946253 0.36871955 1.318492 1.2671475
0003c0 22 15 5e 3f 70 84 55 3f 2d c0 ac 3f 44 b6 aa 3f
       0.86750996 0.8340521 1.3496147 1.3336873
0003d0 81 04 7d 3f 0c fa a2 3f 17 62 58 3f 56 b4 96 3f
       0.98835 1.2732558 0.84524673 1.1773784
0003e0 40 8b 64 3f 41 56 54 3f c0 75 a8 3f db 2e 9c 3f
       0.8927498 0.82944113 1.3160934 1.2201799
0003f0 91 b9 54 3f 5f 32 53 3f 8c 0e 71 3f 99 f8 61 3f
       0.8309565 0.82498735 0.9416282 0.88269955

lstm.weight_hh_l0 f4 [512, 128]
000000 17 6b 8e bd 45 d0 8f 3d fe ba 00 bd dc 8d 39 bd
       -0.069540195 0.07022146 -0.03142833 -0.045301303
000010 51 54 56 3d c0 30 72 3d e6 cd ff 3c b9 9e 55 bd
       0.052326504 0.059128523 0.03122611 -0.052153323
000020 71 8c 9c 3d 8b a5 70 3c 6a 9d 22 bc 12 71 ad bd
       0.076439746 0.014687906 -0.009925226 -0.08468832
000030 5a 80 f7 bc 66 b0 e0 bc 7a 77 ce 3c 43 c3 35 3d
       -0.03021257 -0.027427863 0.025203455 0.04437567
000040 e1 3d 74 bd 50 73 90 3d 04 50 5f bb cc c6 70 3d
       -0.059629325 0.07053244 -0.0034074793 0.058783337
000050 00 07 97 bc e8 7d ac bd 11 37 a1 3d d8 f5 c0 3c
       -0.018435955 -0.08422452 0.07871831 0.023554727
000060 89 a8 f8 bb b8 59 aa bd f5 e7 d3 bc 59 67 af 3c
       -0.0075884503 -0.08317894 -0.025867442 0.021411585
000070 dc 6b 55 bd 6d f2 ae 3c f3 16 40 bd 7f eb ab 3d
       -0.052104816 0.021355832 -0.046896886 0.08394527
000080 5e 73 e2 bb 3f bf 8a bc 3c 5a 6f bc d5 08 7f bc
       -0.0069107255 -0.016936896 -0.014608916 -0.015566071
000090 85 7b 86 bd a7 82 7a b9 eb 25 a5 bc c0 24 44 3d
       -0.06566528 -0.0002389053 -0.020159682 0.04788661
0000a0 f6 73 65 bc fe 2c 3a bd ec bd 01 3c f6 17 ae bd
       -0.014004698 -0.045453064 0.007918816 -0.08500664
0000b0 c7 d4 9a bd 2c 55 0f 3d 0c ee 49 bd de d7 59 bd
       -0.07560115 0.034993336 -0.049299285 -0.053184383
0000c0 e9 71 8b 3d 8d 3e d8 bb 5c 7f d0 3c 40 9c ae bd
       0.06808836 -0.0065992535 0.025451355 -0.08525896
0000d0 79 ae 1a bd 54 05 00 bd 8d 81 a2 3d 89 8a 6f 3d
       -0.037764046 -0.03125508 0.07934866 0.058481727
0000e0 30 b0 ac 3d a8 99 65 3d 3c f0 29 bd 1a 5f 23 bd
       0.084320426 0.05605474 -0.04148887 -0.039885618
0000f0 f6 44 93 3d 28 ac a1 bd b4 ca b7 bb 4a ab 1c 3d
       0.07190888 -0.07894164 -0.005608881 0.03824929
000100 6d b3 50 3d f2 ce c2 bc 48 6d 86 bd a7 01 2d bd
       0.050952364 -0.02378032 -0.065638125 -0.042237904
000110 79 a9 96 3d 3b f2 7b 3d c3 80 19 3d 7b 4b 18 3d
       0.07356543 0.061510306 0.037476312 0.03718136
000120 56 88 95 bd 8d e7 86 bd 7b 68 c2 3c dc d8 80 3d
       -0.07301395 -0.065871336 0.02373146 0.06291363
000130 eb a5 94 bc c8 ee 12 3c de 30 58 bd f8 0d 8a 3c
       -0.018145522 0.008968063 -0.05278098 0.016852364
000140 5f 92 77 bd 03 3f 62 3c 7e 3a e0 bb 51 4f ad bd
       -0.060442325 0.0138089685 -0.0068429103 -0.08462394
000150 d1 a6 a8 bd f2 ed 3f 3d 86 cd 14 3c aa ce 06 3c
       -0.08234943 0.04685778 0.009082204 0.0082279835
000160 74 38 a5 3d 9c 0c 1e 3d fe 16 7f 3c 4e c1 25 bd
       0.08067408 0.038586244 0.015569447 -0.040467553
000170 14 6a 1a bd e6 37 44 3d 49 94 52 bd b6 b2 8e bd
       -0.03769882 0.04790487 -0.051410947 -0.0696768
000180 4f 85 c1 3c df f4 05 bd b5 5e c5 bc 29 07 8c 3d
       0.023623137 -0.03270423 -0.024093011 0.06837303
000190 24 8b 89 3b 59 a6 8f bd 6b e2 e7 3c e6 1d 8f 3d
       0.004197495 -0.0701415 0.028306207 0.069881245
0001a0 70 b0 63 bd 33 5c f6 bb 29 b1 84 bd da 02 68 bd
       -0.055588186 -0.007518315 -0.06479103 -0.056643344
0001b0 ba 12 9f bd fa bd a0 bd 20 08 2b 3d c0 1d 6d bd
       -0.07767244 -0.07848735 0.041755795 -0.0578897
0001c0 4e 95 de bc ba 60 e6 3b d0 04 14 bd 23 85 66 3d
       -0.027170803 0.0070305737 -0.036137402 0.056279313
0001d0 13 62 85 bd 90 ea 38 3c 1c 2c 8b 3c e6 75 94 3d
       -0.06512847 0.011286393 0.016988806 0.0724905
0001e0 d7 ba 9a 3d fb 12 50 bd dc a5 9a bc 24 c4 31 bd
       0.07555168 -0.05079935 -0.018877916 -0.043399945
0001f0 82 b1 3f bd 92 41 9a bd 81 b3 82 3d a3 1a 6e bc
       -0.046800144 -0.07532038 0.06381894 -0.014532718
000200 9a 38 5f bd 65 7a 05 bc 04 11 3d bd a9 0f 74 3d
       -0.05449734 -0.008146857 -0.046158805 0.059585247
000210 64 da c2 3b c8 f7 1e bd 15 1b ae bd 77 24 a7 3d
       0.0059464443 -0.03881052 -0.08501259 0.08161252
000220 c4 ef 08 bd 52 46 de bb 25 bf 17 3d 91 ae a6 bd
       -0.033431783 -0.006783285 0.037047524 -0.08138765
000230 f4 00 a0 b9 ba 76 16 3d be d2 fe 3c 84 f8 c8 bc
       -0.00030518288 0.03673432 0.03110635 -0.024532564
000240 27 8e a1 bd 5c 3b 2c 3d 9b 43 70 bd ac 52 60 3d
       -0.078884415 0.042048797 -0.058658224 0.054766342
000250 a7 c6 8b 3d f2 60 11 3d 58 30 a3 3d d9 a9 77 bc
       0.06824999 0.035492845 0.07968205 -0.015116178
000260 d2 27 22 3d 1b 61 83 3d ff bc 05 bd 0e 08 ce 3c
       0.039588757 0.06415006 -0.032650944 0.025150325
000270 6d e8 6b 3d 6a a0 02 3b 23 30 54 bd 07 97 97 3d
       0.057594705 0.001993204 -0.05180372 0.07401853
000280 0f 04 86 bd f3 a2 9a 3d 04 60 37 bd 0e e2 63 bd
       -0.06543743 0.07550611 -0.044769302 -0.055635504
000290 75 30 e5 3c 71 af ac bd ed 6f 6b 3d eb b0 69 3d
       0.027977208 -0.084319 0.057479788 0.057053488
0002a0 73 1c 41 bd 3c 27 25 3c de 2e 23 3d 43 a1 b1 ba
       -0.047146272 0.010080155 0.039839618 -0.0013552088
0002b0 ad 2e b6 bc 82 9e bb bb 9f 3b 8f 3d 98 34 9a bc
       -0.022239054 -0.0057256827 0.06993794 -0.018823907
0002c0 29 2a 2f 3d ee 22 26 3d dc 54 8c bc 14 b4 89 bd
       0.042764816 0.040560655 -0.017130308 -0.067238
0002d0 3a e7 d3 bc 59 b6 ac bd e8 43 82 3d ba e2 df bb
       -0.025867093 -0.084332176 0.06360608 -0.006832448
0002e0 a4 87 97 3b db 85 73 bd 95 2c 0f 3d 60 a9 bc 3b
       0.004624324 -0.059453826 0.034954626 0.0057574958
0002f0 1a 75 b0 3c 81 ba 7b 3d 3f a8 8f bc 87 3e 6e 3d
       0.021540213 0.06145716 -0.01753628 0.0581651
000300 95 83 98 bd 26 6e ad bd 2e 05 e8 3b 1c 7c 88 38
       -0.07446972 -0.08468275 0.0070806956 6.5081025e-05
000310 21 5e da 3b 20 4f 80 3d 7a c4 9f bd 73 99 86 bd
       0.006664053 0.06265092 -0.07801147 -0.06572237
000320 4a e0 02 bd 53 56 4e 3c dc ad a8 3d d0 fc d6 bc
       -0.03195218 0.0125938235 0.08236286 -0.026243597
000330 52 ae 81 bd a5 4e 08 bd f0 2c 1b bd 44 b6 8f bd
       -0.06332077 -0.033278126 -0.037884653 -0.07017186
000340 7d ec f5 3b 71 ed 99 3d f1 dc a6 bd 80 c1 6e 3d
       0.0075049982 0.075159915 -0.0814761 0.058290005
000350 5b be 78 bd 15 05 d7 bc 68 7f 35 3d 69 40 c2 3c
       -0.060728412 -0.02624754 0.044310957 0.023712354
000360 78 e2 5f 3d 06 2f 34 bd 2d c7 97 bd 94 83 c3 bb
       0.054659337 -0.043990158 -0.07411037 -0.005966613
000370 16 18 77 bd 47 93 c5 3c af a4 0c 3d da 72 09 3c
       -0.060325705 0.024118079 0.034336742 0.008389199
000380 59 1e 2f 3d b8 18 34 bd 7c 86 43 bd cb 13 c5 bc
       0.04275355 -0.043968886 -0.047735676 -0.02405729
000390 21 3d 97 3d b4 ad ba bb 81 5f 63 bd 8a fa 5d bd
       0.07384706 -0.0056969766 -0.055511 -0.05419401
0003a0 27 c0 7a 3d 5c f7 32 bd ec 13 5d 3c ff d0 40 b8
       0.061218407 -0.04369293 0.013493519 -4.597101e-05
0003b0 3f 7c f0 bb 75 07 ff ba 52 f3 0d 3d 9d 12 90 3d
       -0.00733903 -0.0019457178 0.034655876 0.070348
0003c0 0e 8a 83 3d 53 ae 60 3b d9 05 03 3c 6e f8 9a bc
       0.06422816 0.0034283593 0.007997 -0.018917289
0003d0 83 c1 6b 3d 7d eb d2 bb f2 aa 8a bc d7 b4 b0 bc
       0.057557594 -0.006436764 -0.016927216 -0.021570606
0003e0 75 3c 04 bc 71 08 c7 bc 27 a7 1f bc 41 d1 96 bc
       -0.008071055 -0.024296017 -0.009744442 -0.018410327
0003f0 92 a9 ac bd 16 18 69 3d 35 b3 70 bc c1 74 bb bc
       -0.084307805 0.056907736 -0.014691164 -0.022882821

lstm.bias_ih_l0 f4 [512]
000000 6e 6b 92 3f dc 40 a0 3f 9a 96 9b 3f 4a af 8e 3f
       1.1439035 1.2519794 1.2155335 1.1147244
000010 1f 9a ab 3f 8b 42 8f 3f 70 9f 92 3f 43 bf a2 3f
       1.3406409 1.1192182 1.1454906 1.2714618
000020 43 89 c7 3f de c8 96 3f e3 5a 80 3f cd f8 98 3f
       1.5588764 1.178005 1.0027736 1.1950928
000030 1c a4 86 3f 19 68 8a 3f 9a 53 a8 3f 87 4d 81 3f
       1.0518832 1.0813018 1.3150513 1.0101784
000040 36 7b 98 3f 80 eb 8c 3f cb d3 9b 3f e0 14 86 3f
       1.1912601 1.1009369 1.2174009 1.047512
000050 19 62 aa 3f 00 31 86 3f 5e 33 99 3f 23 f3 ca 3f
       1.3311187 1.0483704 1.1968801 1.585545
000060 f2 14 b4 3f 29 87 9d 3f e4 51 9d 3f 41 7d 7b 3f
       1.4068892 1.2306873 1.2290616 0.98238
000070 3f f2 86 3f 6b 8d aa 3f 83 54 b8 3f 54 ac 85 3f
       1.0542678 1.3324407 1.4400791 1.0443215
000080 51 c3 65 3f 59 fb ba 3f 09 ac af 3f 74 c6 aa 3f
       0.89751154 1.4607955 1.3724376 1.3341813
000090 0a 09 8b 3f 69 45 87 3f cc 72 7a 3f b0 ff 8a 3f
       1.0862134 1.0568057 0.97831416 1.085928
0000a0 f5 79 a0 3f 57 5e a2 3f 72 ed 9f 3f c4 9e b0 3f
       1.2537218 1.268504 1.2494338 1.3798451
0000b0 e2 21 ae 3f 3a 40 9c 3f 96 60 84 3f 49 55 90 3f
       1.360409 1.22071 1.0341976 1.1276027
0000c0 94 54 a9 3f 1a 51 91 3f 31 01 9d 3f 03 85 20 3f
       1.3228936 1.1352875 1.2265989 0.6270296
0000d0 7b 71 93 3f 4f ed ab 3f da a4 93 3f 97 eb ca 3f
       1.1519006 1.3431796 1.1534684 1.5853146
0000e0 52 69 97 3f e1 94 7a 3f 77 37 81 3f 4c b4 74 3f
       1.1829016 0.9788342 1.0095052 0.9558761
0000f0 31 b4 aa 3f 48 ce 9f 3f d4 d6 9e 3f 1a b9 29 3f
       1.333624 1.2484827 1.240931 0.6629807
000100 74 36 aa 3f f9 9a b5 3f 64 ea a9 3f 0f 7a 90 3f
       1.3297868 1.4187919 1.3274655 1.1287249
000110 6b 95 85 3f d6 47 8c 3f dc c7 a7 3f 57 35 8b 3f
       1.0436224 1.0959423 1.3107867 1.0875653
000120 a9 7e ca 3f 90 9c 94 3f de ec 87 3f a6 52 98 3f
       1.5819904 1.1610279 1.0619161 1.1900222
000130 99 4d 8f 3f 96 b3 9d 3f e6 11 9f 3f 26 49 94 3f
       1.1195556 1.232043 1.2427337 1.1584823
000140 84 e8 7f 3f f0 05 71 3f 51 25 aa 3f 16 c6 c2 3f
       0.99964166 0.94149685 1.3292638 1.5216701
000150 99 7b 85 3f e6 5d 95 3f 5f b1 8d 3f f8 b2 7c 3f
       1.0428344 1.166928 1.1069754 0.98710585
000160 32 ce b0 3f 8a 60 8a 3f 93 12 65 3f 56 19 b9 3f
       1.3812926 1.0810711 0.89481467 1.4460857
000170 74 bc 8a 3f d4 04 a6 3f 8b 1b 97 3f 1b c9 81 3f
       1.0838761 1.2970223 1.180528 1.0139498
000180 03 fe 96 3f 1c 35 8a 3f 84 4a 96 3f e8 a8 af 3f
       1.1796268 1.0797458 1.174149 1.3723421
000190 18 f9 91 3f e8 8b 8a 3f d1 cc 98 3f 43 99 82 3f
       1.1404142 1.0823946 1.1937505 1.0203022
0001a0 45 1b 70 3f cc 62 9d 3f 7d 5b b3 3f 8e c4 9b 3f
       0.9379161 1.2295775 1.4012295 1.2169359
0001b0 d9 cf 7a 3f 98 31 92 3f 9c f8 9d 3f aa 36 97 3f
       0.979734 1.1421385 1.2341495 1.1813557
0001c0 d5 05 b7 3f 1f 77 90 3f 77 2f a3 3f 05 06 8b 3f
       1.4298655 1.1286353 1.274886 1.0861212
0001d0 d6 25 d6 3f 42 83 8d 3f 2b f3 91 3f c4 56 41 3f
       1.6730297 1.1055682 1.1402334 0.7552302
0001e0 3b 33 9b 3f 1b 12 ad 3f cf 22 b5 3f 90 19 a3 3f
       1.2125009 1.352115 1.4151248 1.2742176
0001f0 c9 19 b7 3f 72 10 a4 3f 53 dd 86 3f 56 57 c0 3f
       1.4304744 1.2817519 1.0536293 1.5026653
000200 ce af 8d 3c cd 33 23 3d f6 3d 25 bd 9b 35 ab 3d
       0.017295744 0.039844323 -0.040342294 0.08359834
000210 1c da f3 bc 0b 79 8f 3d 79 7a 24 3d 80 36 a7 3d
       -0.029767089 0.07005509 0.04015586 0.08164692
000220 a4 83 8f 3d b7 31 82 bd 32 c9 8a bb e5 03 e2 bc
       0.0700753 -0.063571386 -0.00423541 -0.027589748
000230 1f ee 48 3d 88 d2 ff bc 0a 6a 43 bd 26 24 55 bc
       0.049055215 -0.031228319 -0.04770855 -0.013009107
000240 8e 41 1a bd bb 14 c8 3b d7 95 a7 bc e8 4f 16 3d
       -0.037660174 0.006105987 -0.020457191 0.0366973
000250 c3 65 2e 3c a6 ba 97 bd 97 09 90 3c eb 7a 31 bb
       0.010644379 -0.07408647 0.017582698 -0.0027081321
000260 35 39 a2 bd 11 7d 8c 3b c4 b7 7e bd 29 1c 55 bd
       -0.079210676 0.00428737 -0.06218697 -0.05202881
000270 1a 4a 19 3d e3 a8 89 3d 75 d3 64 bd 93 96 5b bd
       0.037424184 0.06721666 -0.055865724 -0.053610396
000280 4a 4b ac 3d 4c 24 04 bd 11 09 6f 3c f7 85 1e 3c
       0.08412798 -0.032261178 0.014589564 0.009675494
000290 e7 95 74 bd 8f 37 a9 3d 5b 6b 60 bd b8 0c 57 bd
       -0.05971327 0.0826255 -0.054789882 -0.052502364
0002a0 40 d8 3d bc 2d b1 3d bd cf 82 82 3d fb 27 9e 3d
       -0.011587203 -0.046311546 0.06372606 0.077224694
0002b0 7d a5 a1 bd 1e 35 a3 3d 75 39 b0 3c d4 c3 1b 3d
       -0.078928925 0.07969116 0.021511773 0.038028553
0002c0 58 c7 9d 3d 4c 3b 54 ba 58 0c 16 3d a9 73 12 bd
       0.077040374 -0.0008095994 0.036632866 -0.035754833
0002d0 82 2b 54 bc 72 28 af 3d 4d 08 5b bd dc 54 33 3d
       -0.012949826 0.08552636 -0.053474713 0.0437821
0002e0 75 13 f7 bc 4f b2 b4 bb bc 4d a9 bd 77 93 3b 3c
       -0.030160645 -0.00551442 -0.0826678 0.011448733
0002f0 ac 90 92 3a 8f b7 93 bd 77 00 91 bd 32 15 8b 3d
       0.0011182032 -0.072127454 -0.07080167 0.06791152
000300 22 3c 01 bb 67 b0 ad 3c 2b 81 e3 bc 0a 38 3b 3b
       -0.001971968 0.02120228 -0.027771553 0.0028567337
000310 f3 eb 53 bd 2e 73 b4 3c 34 6e db bc 14 d3 4f bd
       -0.05173869 0.022027578 -0.026785947 -0.05073841
000320 98 32 8f 3d f1 1c 30 bd 0c 25 20 3c a5 67 27 bd
       0.06992072 -0.04299635 0.009774458 -0.040870328
000330 73 b5 9a bd 25 1d 8b 3d b0 9c 8b 3d a9 f5 54 3c
       -0.0755414 0.06792668 0.06816995 0.012998023
000340 31 ed f1 bc 92 5a 4f 3c 37 5c 96 3c 14 d7 8a bc
       -0.029532047 0.012655871 0.018354518 -0.01694826
000350 42 a4 85 bd e0 0a 25 bd 42 fa 57 3d d0 05 40 bd
       -0.0652547 -0.040293574 0.0527289 -0.046880543
000360 8f 97 4f 3d eb 00 a3 bd 1c a3 a4 3c e5 64 ec 3c
       0.050681647 -0.079591595 0.020097308 0.028856704
000370 ab 12 49 3d a2 d5 99 bd 94 45 41 3d 2f 72 84 3d
       0.04909007 -0.0751145 0.047185495 0.06467091
000380 e3 0f 4f 3d 5e 3e 67 bc b3 90 7a 3d aa c3 60 3d
       0.05055226 -0.014113991 0.061173152 0.0548741
000390 aa 81 a8 3d 3c da 2a 3d 3e 61 a1 3d e0 66 a2 3d
       0.082278565 0.04171203 0.078798756 0.07929778
0003a0 d6 d6 de 3c 56 cf 1a bd 70 d9 3b bd e6 78 92 3d
       0.027202051 -0.037795387 -0.04586166 0.07151966
0003b0 06 a2 44 3d 6e 81 4e bb 11 41 85 bc 25 ce 42 bd
       0.04800608 -0.0031510252 -0.016266378 -0.047559876
0003c0 64 34 69 3b 9b 8a 89 bd 11 59 53 bd e8 bc 30 bd
       0.0035584206 -0.0671589 -0.051598612 -0.043148905
0003d0 6b f8 79 bd 65 3c 27 bc 8a 95 31 bd c6 1e 4b 3d
       -0.061027925 -0.01020727 -0.043355502 0.049589895
0003e0 52 b8 4e bd cc 7f 7a bc 22 62 26 3d b1 4d 99 3d
       -0.05046875 -0.015289258 0.04062093 0.074855216
0003f0 be d3 a0 3c 5e 83 3e 3c d4 b4 3a bc 98 03 93 bd
       0.019632217 0.011628 -0.011395652 -0.0717842

lstm.bias_hh_l0 f4 [512]
000000 e5 ee 7a 3f bb 11 a5 3f 80 7f 94 3f 83 33 95 3f
       0.98020774 1.2896036 1.160141 1.1656345
000010 c7 9c b1 3f a3 5e 9b 3f 96 3b 96 3f 4b 14 9d 3f
       1.387597 1.2138256 1.1736934 1.2271818
000020 b9 0a c6 3f 42 6d 98 3f e4 d1 85 3f 9e 52 96 3f
       1.5472022 1.1908343 1.0454679 1.1743963
000030 35 ee 8a 3f ba 93 91 3f bf fc af 3f da 23 82 3f
       1.0853945 1.1373208 1.3749007 1.0167191
000040 c4 d7 ad 3f e2 4c 98 3f 0d 56 9c 3f 8f 7b 81 3f
       1.3581471 1.1898463 1.2213761 1.0115832
000050 19 10 a8 3f 5b 73 6e 3f fd 66 99 3f 0f 02 c0 3f
       1.3129913 0.9314477 1.1984555 1.5000628
000060 ed 2e a3 3f 4d 92 95 3f e9 cb 9c 3f 89 b2 7e 3f
       1.2748696 1.1685272 1.2249728 0.99491173
000070 fc c3 78 3f 37 60 a9 3f 46 db b4 3f 3c 82 96 3f
       0.9717405 1.3232487 1.4129417 1.1758494
000080 3f 94 65 3f c7 64 b3 3f a7 d6 af 3f 91 0b a4 3f
       0.8967933 1.401513 1.3737382 1.281603
000090 e1 19 81 3f 08 0f 94 3f c0 2d 84 3f ad 8d 8f 3f
       1.0086023 1.1567087 1.0326462 1.1215111
0000a0 4c 22 95 3f b3 be a5 3f b9 d7 9d 3f 8f f6 9e 3f
       1.1651092 1.2948822 1.2331458 1.2418994
0000b0 87 e6 b1 3f ad 1c 9e 3f 25 a4 73 3f 0c 19 86 3f
       1.3898476 1.2352501 0.9517234 1.0476394
0000c0 97 c0 9d 3f e8 30 86 3f 89 90 b1 3f e1 24 2d 3f
       1.2324399 1.0483675 1.3872234 0.676344
0000d0 bc 7b 95 3f e2 0d a1 3f 77 8f 9a 3f 5d ab ca 3f
       1.1678386 1.2582362 1.2075032 1.5833546
0000e0 96 b9 9c 3f 37 6b 82 3f 03 60 77 3f 73 f5 81 3f
       1.2244136 1.0188969 0.9663088 1.015303
0000f0 aa 3f ac 3f d3 f7 9c 3f d6 61 a0 3f f7 4e 3f 3f
       1.3456929 1.226313 1.2529857 0.74729866
000100 1c a1 b1 3f 04 cb c1 3f de ac b9 3f 0b 05 9d 3f
       1.3877292 1.514008 1.450588 1.2267164
000110 1b e2 7a 3f 01 0e 99 3f e4 92 9b 3f d9 d6 88 3f
       0.9800126 1.1957399 1.2154202 1.0690566
000120 21 3b c9 3f f3 97 8f 3f 85 3f 96 3f 58 c5 9a 3f
       1.572117 1.1218246 1.1738135 1.2091475
000130 e0 2d 8f 3f d7 0d 8f 3f c0 16 a0 3f a7 24 91 3f
       1.1185875 1.1176099 1.2506943 1.133931
000140 53 ec 77 3f d9 d8 81 3f 43 f1 a9 3f e2 20 b9 3f
       0.9684498 1.0144302 1.3276752 1.446316
000150 5c 11 77 3f 08 d4 81 3f 96 8f 88 3f 7b fd 66 3f
       0.96510863 1.0142832 1.0668819 0.9023053
000160 dd 65 a5 3f ca e6 82 3f b9 01 6a 3f da 8d c3 3f
       1.2921711 1.0226681 0.9140888 1.5277665
000170 76 ae 88 3f f1 6a b6 3f 83 5d 9b 3f a0 18 63 3f
       1.0678241 1.4251386 1.2137913 0.8870945
000180 4d 4f 9a 3f d7 44 89 3f c4 de 92 3f 81 61 b0 3f
       1.2055451 1.0724133 1.1474233 1.3779756
000190 78 8f 9b 3f 2e cd 8f 3f e4 3c a0 3f 86 30 75 3f
       1.2153158 1.1234491 1.2518582 0.95777166
0001a0 a2 f7 7d 3f ef 49 9e 3f b7 3b a2 3f f9 46 a1 3f
       0.9920598 1.2366313 1.2674474 1.2599784
0001b0 5b 13 80 3f 74 ac a0 3f c9 87 9c 3f 4c 85 99 3f
       1.0005907 1.2552629 1.2228938 1.1993804
0001c0 9a 64 a6 3f fd 8a 92 3f 69 bc 9c 3f 57 62 8d 3f
       1.2999451 1.1448666 1.2244998 1.1045636
0001d0 c3 cf c6 3f 37 68 88 3f da 15 9f 3f 9f f5 44 3f
       1.5532154 1.0656804 1.2428544 0.7693729
0001e0 1f 99 9c 3f ce d2 af 3f 0c 87 bb 3f 01 1e 96 3f
       1.2234229 1.3736207 1.4650588 1.1727906
0001f0 6f 1a b4 3f 79 50 a7 3f a8 8a 95 3f 7a 2a b0 3f
       1.4070567 1.3071433 1.168294 1.3762963
000200 77 28 73 bc eb e6 cc 3c ae 0b af bd a2 81 24 3d
       -0.014841191 0.025012454 -0.085471496 0.04016269
000210 23 47 a7 bd 08 7f ac 3d 22 cc a1 bc 4f 73 fe bc
       -0.08167865 0.08422667 -0.019750658 -0.031060843
000220 5c c1 2a bd b3 ec 35 bd de e0 dc 3c d5 1a a8 bd
       -0.041688308 -0.044415187 0.026962694 -0.08208243
000230 ba 5e 34 3d da 2e 30 3d 4c a7 3e bc f8 53 c3 bc
       0.04403565 0.04301343 -0.011636566 -0.02384375
000240 64 73 82 3c 1e 65 66 bd 29 48 9b 3d 5b 9a 28 bd
       0.015924163 -0.056248777 0.07582123 -0.04116283
000250 92 f0 73 bd be db 90 bd 2a 45 ec 3b 4f 84 93 3d
       -0.059555598 -0.070731625 0.0072103934 0.0720297
000260 3f 48 43 bd 04 7d 19 bd df 1c 75 bd 50 bd b1 3c
       -0.04767632 -0.03747274 -0.059841987 0.021696717
000270 f2 98 30 bd e3 74 79 3d 12 28 24 bc b4 2b 20 3d
       -0.04311461 0.060902487 -0.010019319 0.03910418
000280 51 62 81 bd bb 26 87 3d f1 4b b0 3c a7 d9 6f 3c
       -0.063175805 0.06599184 0.021520587 0.014639295
000290 a7 c7 e7 3c 40 3d 2d bd 9f 79 b2 3c 95 bd a2 bd
       0.028293444 -0.04229474 0.02178651 -0.07946316
0002a0 1c a8 d1 3c c8 8e 57 3d da 45 9d 3d da 72 ac 3d
       0.025592856 0.0526264 0.07679339 0.08420344
0002b0 45 88 96 bc 31 85 0a 3d c5 96 20 bd bf 88 0f 3b
       -0.018375525 0.033818427 -0.039206285 0.0021901575
0002c0 fe 85 aa bd 20 1f 31 3d 02 cc 40 3d 7e 04 88 bc
       -0.08326338 0.043242574 0.047069557 -0.016603705
0002d0 a2 a3 52 3d 77 f9 36 3d 43 a7 90 3d 70 44 9d 3d
       0.051425584 0.044671502 0.07063153 0.07679069
0002e0 1b dd b3 bc 26 b8 ad 3d 5e f6 e6 bb 8b ad d0 3c
       -0.021956017 0.08482389 -0.007048412 0.025473377
0002f0 fc 03 72 bd 13 60 ae 3d ea ff ff 3c eb cc bd bc
       -0.05908583 0.085144185 0.031249959 -0.023169002
000300 38 1e 55 bd ac 40 9a bc 38 ca 07 bc c3 8b 30 bd
       -0.052030772 -0.018829666 -0.008287959 -0.043102037
000310 ef 11 0e 3c b9 44 cc bc 20 47 84 3b 89 28 b6 3c
       0.008671268 -0.024935113 0.004036799 0.022236126
000320 31 af a2 3d 3e 61 99 bd 62 df 91 3d 31 e2 11 3d
       0.07943571 -0.074892506 0.07122685 0.035616104
000330 4e b6 c2 ba 58 19 75 3c d5 83 68 bd 1e 28 7d bc
       -0.0014855356 0.014959656 -0.05676635 -0.015451459
000340 75 9a 9f 3d 4f cf e7 3c 12 94 8a bd a5 c0 a2 3d
       0.07793132 0.028297095 -0.067665234 0.079469
000350 89 e1 83 bd f5 c0 73 3c c8 5a a2 3c 9d 51 1e bd
       -0.06439502 0.0148775475 0.019818678 -0.03865205
000360 0e 20 79 3d ea b7 ad bd 56 3f c6 bc ef bc 82 3d
       0.060821585 -0.084823444 -0.024200123 0.063836925
000370 7d af 86 3d 75 45 91 bd 3c 7b 83 bd 4f 73 a7 bd
       0.065764405 -0.07093326 -0.064199895 -0.0817629
000380 c1 45 9c bc 35 6e a5 bd 36 78 42 3c 06 34 77 3d
       -0.01907623 -0.08077661 0.011869481 0.060352348
000390 80 11 e3 3c ee c3 8a 3c ac 93 51 3d 81 b6 84 bd
       0.027718306 0.01693913 0.05116622 -0.06480122
0003a0 db 02 0c bd 52 72 84 bd 16 0c 7d 3c 45 f9 49 3d
       -0.03418241 -0.06467117 0.015444776 0.049309988
0003b0 8e bc 2c bd c3 2e 7f bd 13 58 84 3d 73 2f 91 bd
       -0.042172007 -0.062300455 0.06462111 -0.07089128
0003c0 3e 3c 90 3d 49 03 68 bd 9d a2 ab 3c 04 32 51 bd
       0.0704274 -0.056643758 0.020951563 -0.05107309
0003d0 d9 58 63 3d ee 7d 88 bc 4a c6 90 3d 3a ea c5 39
       0.055504654 -0.01666161 0.07069071 0.0003774928
0003e0 94 e6 81 bc 1f 57 ab 3d 98 ce d9 3c 15 27 07 3c
       -0.015857019 0.083662264 0.02658777 0.008249064
0003f0 6c dc 0b bd 20 c1 04 bd ca 4a 64 3c 43 07 1a 3d
       -0.034145758 -0.03241074 0.013933847 0.03760458

fc.weight f4 [12, 128]
000000 c1 ce b6 bf e1 0d c7 3f 02 00 cf bf 56 c1 ed bf
       -1.4281846 1.555111 -1.6171877 -1.8574626
000010 4e 34 db 3f b8 07 54 be 13 ec e3 bf f3 d8 80 bd
       1.7125337 -0.2070607 -1.7806419 -0.0629138
000020 38 8c d8 3f ba 0b ba be 98 11 0b bf 72 86 4f 3d
       1.6917791 -0.36337072 -0.5432372 0.050665326
000030 b9 80 6c 3f 2a eb 0f bf cf 1f 15 bf 01 fa 80 3f
       0.92383915 -0.56218207 -0.5825166 1.0076295
000040 a1 54 ff 3f c5 1c c1 bf c8 d9 ec 3f 7b 39 e1 be
       1.9947702 -1.5086905 1.8503962 -0.43989167
000050 6f c4 f4 3f 72 9d c1 bf 3b c6 92 bf 8d 4b c3 bf
       1.9122447 -1.5126173 -1.1466745 -1.5257431
000060 0d 2e d6 3f 22 0e 27 bf 24 f4 dc 3f 25 9a d7 3e
       1.6732804 -0.6525594 1.7262006 0.4210979
000070 97 d6 4a be c2 b3 c0 bf 41 53 fa bf 2f 15 c6 bf
       -0.19808422 -1.5054858 -1.9556657 -1.5475215
000080 d6 e8 70 3e 34 b2 a0 3f b4 da 8f bf b5 10 05 c0
       0.2352632 1.2554383 -1.1238618 -2.0791447
000090 17 27 ae 3f 10 b2 1b 3f b6 83 b8 3f 1a 45 68 3f
       1.3605679 0.60818577 1.4415195 0.9073044
0000a0 9f 63 3e bf e5 66 b7 3f 2f 17 cd bf 74 2a f7 be
       -0.7437076 1.4328276 -1.60227 -0.48274577
0000b0 5c b2 dc 3f d1 24 db 3f 58 71 df bf 70 d1 cc 3f
       1.7241931 1.712061 -1.7456465 1.6001415
0000c0 ef 50 09 40 11 3e 0a 3f 52 a0 02 bf a7 a3 88 be
       2.1455648 0.54000956 -0.5102588 -0.26687357
0000d0 12 fa 50 bf 82 65 28 bd 59 2b ca 3f 2f a0 48 bf
       -0.81631577 -0.04111243 1.5794479 -0.7836942
0000e0 75 9d d7 bf fb 89 7c bf ec 15 61 3e 9f 70 c1 3f
       -1.6844927 -0.9864804 0.21981019 1.5112494
0000f0 ed 09 e4 3f 24 04 f2 bf ea 3a 8f 3e 58 67 d3 3f
       1.7815529 -1.8907514 0.27974635 1.6515913
000100 6d 4a de bf 12 b1 f1 bf 15 10 dd 3f 71 42 a0 3f
       -1.7366463 -1.8882163 1.7270533 1.2520276
000110 16 77 af 3f dd 68 ce bf 7b 9d 9d 3f 63 d5 c8 bf
       1.3708217 -1.6125752 1.2313684 -1.569012
000120 e5 c4 c8 bf 9f dc b0 bf f9 81 d5 bf 87 27 d7 3f
       -1.5685087 -1.3817328 -1.668029 1.6808938
000130 69 6f e6 3e 33 29 12 3f 75 6a af 3d 47 e6 a4 bd
       0.45006874 0.57094115 0.08565227 -0.080517344
000140 94 37 ec bf 64 f3 e8 bf 56 03 da 3f ec d0 c4 bf
       -1.8454461 -1.8199277 1.7032268 -1.5376258
000150 88 4e ce bf 37 17 bc be d4 fb 86 3f ea 2b ef 3f
       -1.6117716 -0.36736462 1.0545602 1.8685277
000160 11 54 a8 be 0c 94 5c 3f 53 fe 04 3f 0e 20 b5 bf
       -0.32876638 0.861634 0.5195057 -1.4150407
000170 31 1f 2b bf 42 3c c7 3f c2 cb 95 3f 80 77 68 bf
       -0.6684447 1.5565264 1.1702807 -0.9080734
000180 8f a3 c8 3e 85 b5 fd be 37 a6 19 bc ee ed a0 3f
       0.39187285 -0.4955255 -0.009378008 1.257261
000190 8f 5b c4 3f 3f 1f 80 3f d4 6e 92 3f 17 83 b1 bf
       1.5340441 1.0009536 1.1440072 -1.386813
0001a0 a6 37 7e bf 36 98 c2 3e 8e ee 9f 3f 5e 03 fa 3c
       -0.9930366 0.38006753 1.2494676 0.030519184
0001b0 03 8c 7a 3f c8 fe b8 bf 0d 26 a5 bf cf f0 ba 3f
       0.9786989 -1.4452753 -1.2902237 1.4604739
0001c0 18 86 c4 3f 1d c8 fc bf 78 46 c8 3e 1a 29 c3 3e
       1.5353422 -1.974857 0.39116263 0.38117296
0001d0 da b5 b6 bf e1 29 5a be 4e 5b b3 3e 2e 4a 56 3f
       -1.4274247 -0.21305038 0.35030597 0.8370694
0001e0 69 b6 9c 3f fa c6 fb 3f c6 47 8a 3f 83 ae fa 3f
       1.2243167 1.9670098 1.0803154 1.9584507
0001f0 e6 cb 23 3e c5 6f ce 3f 6f 4f e0 bf d1 de 42 3f
       0.1599575 1.6127859 -1.7524241 0.7612124
000200 9f b8 19 3f 41 71 26 3f 1f d8 78 3f a3 6e 02 40
       0.60047334 0.6501656 0.97204775 2.0380027
000210 ec 15 bf 3f 8c ab 95 3f 12 63 af 3f b4 ae 3f bd
       1.4928565 1.1692977 1.3702109 -0.04679747
000220 dd 63 00 3f 96 2d b2 3f 82 05 6e 3f 60 17 76 3f
       0.5015238 1.3920162 0.92977154 0.9612942
000230 e6 da 5c bf 06 1d 82 3f 6d 7e d5 3f 31 77 e8 3f
       -0.8627151 1.0165107 1.6679207 1.8161374
000240 c1 30 3d 3f 65 e3 51 bf 32 d8 a6 bf 9f 6e d1 bf
       0.7390252 -0.819876 -1.3034728 -1.6361884
000250 79 3a e7 bf dd 2b 71 3f de 31 7c bf e3 2e 3a bf
       -1.806472 0.94207555 -0.9851359 -0.72727793
000260 7a 4a 4f bd d9 d6 58 3f 26 6b bc bf fa fa 87 3f
       -0.050608136 0.8470283 -1.4720199 1.0623467
000270 93 84 ab bf a6 ff b9 bf b6 ca 9b 3f 56 ca e0 3f
       -1.3399833 -1.4531143 1.2171237 1.7561748
000280 ef da b8 bf f9 ed b6 3f d7 f2 45 bf cd e9 ba 3f
       -1.4441813 1.4291373 -0.7732367 1.46026
000290 95 86 bd bd 25 bb d0 bf f0 61 81 3f 91 30 cc bf
       -0.09254185 -1.6307112 1.0108013 -1.5952321
0002a0 cd 35 0a 3f e9 9f c3 be d8 b9 bc bf f7 78 a7 bf
       0.53988343 -0.3820794 -1.4744215 -1.308379
0002b0 4a 3d ec bf 52 77 5f bf 97 23 dc be e5 ff a8 3f
       -1.8456204 -0.87291443 -0.42995903 1.3203093
0002c0 03 47 87 3f 22 c9 98 bf 42 39 96 bd c1 d7 cf 3e
       1.0568546 -1.1936381 -0.0733514 0.40594295
0002d0 66 a9 c5 3f 56 09 ce 3f 32 19 8c 3e 65 8e 10 3f
       1.5442321 1.6096599 0.27362972 0.56467277
0002e0 d3 43 1c bf 31 7f d7 3f 07 5b c0 bf 3e 87 b5 bf
       -0.6104099 1.6835691 -1.5027779 -1.4181898
0002f0 c8 7f 54 3f b8 06 a4 3f 22 55 f7 3e d3 72 97 bf
       0.8300748 1.281455 0.4830714 -1.1831917
000300 77 7a 9c bf eb eb d0 bf 9f 49 c3 bf 3e 68 77 bf
       -1.2224873 -1.6321996 -1.5256842 -0.96643436
000310 55 fa 75 bf 41 ad 68 3f ff 65 9c bf 73 11 95 3f
       -0.960851 0.90889364 -1.2218627 1.164595
000320 42 f7 cf 3f 6d dd 4b 3f 4e 6d c7 3f c3 60 ff 3f
       1.6247332 0.79634744 1.5580232 1.9951404
000330 2f 17 e7 3f 0c 99 bb 3f 4c 59 53 3f 17 53 e4 3f
       1.805395 1.4656081 0.8255813 1.7837857
000340 6c 4c a6 3f be 91 8b 3f 28 2b ef bf 6c e9 87 bf
       1.2992072 1.0903852 -1.8685045 -1.061811
000350 37 44 c5 3f 5f 69 8b 3f 0f 14 00 c0 c1 59 e3 bf
       1.5411443 1.0891532 -2.0012243 -1.7761766
000360 db c8 e2 bf a4 11 da bf 18 47 c1 3f 0d a7 7a bf
       -1.7717546 -1.7036633 1.5099821 -0.9791115
000370 69 71 8c 3f 4b bb fa 3e cb ad f3 3e 7a 8c d9 bf
       1.097211 0.48971018 0.4759353 -1.6995995
000380 0e 9b e1 3f 9f a9 ed bf a3 67 9c bf 23 ac 49 3e
       1.7625444 -1.8567389 -1.2219127 0.19694571
000390 73 a4 6f bf 87 4e b5 bf 09 a7 7a bf 29 61 c5 bf
       -0.93610305 -1.416459 -0.97911125 -1.5420276
0003a0 bf bc 38 3f a5 6f a9 bf 51 06 31 3f 9d 77 ac bf
       0.72163004 -1.3237196 0.69150263 -1.3474003
0003b0 4c ab c9 3f 10 01 93 bf 84 d5 c0 3f 90 af e3 bf
       1.5755401 -1.1484699 1.506516 -1.7787952
0003c0 65 45 d3 bf 9e 43 1b 3f 57 79 9b bf f6 b7 51 be
       -1.6505553 0.6065005 -1.2146405 -0.20480332
0003d0 f2 58 77 3f ed e2 e5 3f 6e 63 a8 3f d2 a3 a6 bd
       0.96620095 1.7959877 1.3155344 -0.08136715
0003e0 d7 19 b8 bf 89 4c 01 c0 06 71 ab bf 14 4a 92 bf
       -1.4382886 -2.0202963 -1.3393867 -1.1428857
0003f0 05 0f 88 3f 2c af b8 3f 2c 86 47 3f 7c 27 dc 3e
       1.0629584 1.4428458 0.77939105 0.42998874

fc.bias f4 [12]
000000 3d 6a 79 3e d8 e5 97 3e d2 2c 9f be 74 f0 27 be
       0.24356933 0.29667544 -0.31088883 -0.1640032
000010 11 8f ed 3d d3 5a e5 be 57 d5 4b be 86 ac b2 3e
       0.115995534 -0.44795856 -0.19905601 0.3489725
000020 6d 61 85 3e d5 9a 0e be ff d0 aa 3e bf c1 db 3e
       0.26050892 -0.13926251 0.33362576 0.42921254
